checkpoint_actor_tennis.pth (torch_old, 583965 bytes, 8 tensors)

fc1.weight f4 [512, 24]
0	0x3dbe2949	0.09285218
1	0xbbbc802b	-0.0057525835
2	0xbb309410	-0.002694372
3	0xbdb327c2	-0.087478176
4	0xbd7fa463	-0.06241263
5	0xbdb93e23	-0.09045055
6	0xbb2ce3f7	-0.0026380995
7	0xbd9e0a20	-0.07716775
8	0x3da48223	0.08032634
9	0x3d007f47	0.03137138
10	0xbc242847	-0.0100193685
11	0xbd72ee4c	-0.05930929
12	0xbd87cf03	-0.06631281
13	0xbdd2308a	-0.10263164
14	0x3ca04f0e	0.019568946
15	0xbcae214f	-0.021256117
16	0x3d868c43	0.065697215
17	0x3d9b614f	0.075869195
18	0xbba257c3	-0.0049543097
19	0xbd26e725	-0.04074778
20	0xbd910e65	-0.07082824
21	0xbdcea07c	-0.10089204
22	0xbd211c1e	-0.039333455
23	0xbc485e21	-0.012229473
24	0x3dde2b1b	0.108480655
25	0xbbf914e8	-0.007601369
26	0xbd3cd98b	-0.046105903
27	0x3c8c4b99	0.017125892
28	0xbd9cf733	-0.07664337
29	0xbcc8bedc	-0.024505071
30	0x3d052ada	0.03251157
31	0xbd18eb7d	-0.037333954
32	0x3df772b6	0.12082426
33	0x3d432f91	0.047652785
34	0x3b697150	0.0035620518
35	0x3c757571	0.0149816135
36	0xbd31c654	-0.04340203
37	0x3d7c865a	0.061651565
38	0xbcad9dfa	-0.021193493
39	0x3c9f4b6d	0.019445146
40	0x3d82e9ab	0.06392225
41	0xbd3f0efe	-0.046645157
42	0x3d233af0	0.03985113
43	0xbc9fbd0d	-0.019499326
44	0x3ca6f683	0.020381218
45	0x3decef60	0.11569095
46	0xbc967ac7	-0.018369092
47	0x3d19741a	0.03746424
48	0xbd04b4f2	-0.032399125
49	0x3df932be	0.121678814
50	0xbcc6f0fc	-0.024284832
51	0x3cafe85d	0.021473104
52	0x3a2c3c02	0.0006570221
53	0x3d304ea9	0.043043766
54	0x3cae85fd	0.021304125
55	0x3b3e5a22	0.0029045423
56	0xbd597c4b	-0.05309705
57	0x3dcb96bc	0.0994086
58	0xbcf38e19	-0.029730843
59	0xbc1e48be	-0.009660898
60	0x3cbb4f49	0.022864955
61	0xbc2affc0	-0.010436952
62	0xbc3410c3	-0.010990324
63	0x3d087339	0.03331301
64	0xbd25ded0	-0.040495694
65	0x3df6b6c8	0.120465815
66	0xbcaedc55	-0.021345297
67	0xbd0e795b	-0.034783702
68	0x3dfa3988	0.122180045
69	0xbe0dc298	-0.13843763
70	0xbd2d1df3	-0.04226489
71	0xbd6958d5	-0.056969482
72	0xbca32fa3	-0.019920176
73	0x3bed1353	0.0072349696
74	0xbcc63c66	-0.024198722
75	0x3c996482	0.018724684
76	0x3d80a049	0.06280572
77	0xbd86b4a1	-0.06577421
78	0xbc7f1c8d	-0.015570772
79	0x3da38f3e	0.07986306
80	0x3cc0bf4c	0.023528717
81	0xbc3dbf6b	-0.011581282
82	0xba85bc5e	-0.0010203233
83	0x3da26148	0.07928711
84	0x3d68906d	0.05677836
85	0x3d8b322d	0.0679668
86	0xbc23bc15	-0.009993573
87	0x3d6c6023	0.05770887
88	0xbd2232ca	-0.039599217
89	0xbc35ffa0	-0.011108309
90	0x3be8719d	0.007093622
91	0xbd1ea802	-0.038734443
92	0xbcfa10b9	-0.030525552
93	0x3dc88340	0.09790659
94	0x3ceeb3d9	0.029138492
95	0xbbc5b5b2	-0.0060336227
96	0x3d96189c	0.073289126
97	0x3d456558	0.048192352
98	0xbd8e0051	-0.06933654
99	0xbce2262a	-0.027606089
100	0xbc0c4636	-0.0085616615
101	0xbd015691	-0.031576697
102	0xbbee213a	-0.0072671445
103	0xbd0805c5	-0.033208627
104	0x3cf04b28	0.029332712
105	0x3dcf1013	0.10110488
106	0xbd37a61f	-0.04483616
107	0x3ca5cbef	0.020238845
108	0x3ca2acfc	0.019857876
109	0xbcae1efe	-0.021255013
110	0xbcf24032	-0.029571626
111	0x3cea9fff	0.028640745
112	0x3e04c2a7	0.12964879
113	0x3d89f8eb	0.067369305
114	0xbd9950bc	-0.07486102
115	0xbc438fd9	-0.011936151
116	0xbbaf8d61	-0.00535743
117	0xbc31c8e4	-0.010851119
118	0x3ba2a5a2	0.0049635926
119	0xbc78e53b	-0.015191372
120	0x3db7a8f8	0.08967775
121	0x3d272b95	0.040813047
122	0xbd3061d0	-0.04306203
123	0xbc8c4bb9	-0.017125951
124	0x3d27aeeb	0.0409383
125	0xbd2a60ba	-0.041596152
126	0xbcf15fa8	-0.029464558
127	0xbc18deb0	-0.009330437
128	0x3e23cc2d	0.15995856
129	0x3d887658	0.06663197
130	0x3d26aedf	0.040694114
131	0xbbe1e3ef	-0.006893627
132	0xbbf3f356	-0.0074447794
133	0x3b7ad8b5	0.003827614
134	0x3cf16be4	0.029470392
135	0xbcffa38c	-0.031205915
136	0x3e09125e	0.13385913
137	0x3d870525	0.06592778
138	0xbc44f151	-0.012020425
139	0xb9d41a0c	-0.00040455197
140	0xbceeaaeb	-0.029134234
141	0xbcc4a158	-0.024002716
142	0x3cc28eb8	0.023749694
143	0x3c2d49d7	0.010576687
144	0x3d361cc4	0.044461027
145	0xbd0675b4	-0.032827094
146	0xbce58886	-0.028019201
147	0xbd9d0523	-0.076669954
148	0x3b384701	0.0028118494
149	0xbde4c459	-0.11170263
150	0x3c59ad00	0.013285875
151	0xbcb2d90d	-0.021832014
152	0x3d70d272	0.058794446
153	0x3cd93333	0.026513672
154	0x3bfd5f34	0.0077322964
155	0x3d34713f	0.044053312
156	0xbd196ca4	-0.037457123
157	0xbe09a2dc	-0.13441032
158	0xbc0f0112	-0.0087282825
159	0x3cef55e2	0.029215757
160	0x3d192757	0.037391033
161	0xbbcbb2cd	-0.006216383
162	0xbc24d4ca	-0.0100604985
163	0xbb3dc162	-0.0028954376
164	0x3ce60c5d	0.028082067
165	0xbe3cf210	-0.18451715
166	0xbcb12282	-0.0216229
167	0x3cf4da3c	0.029889219
168	0x3c850485	0.016237507
169	0x3d178efd	0.0370016
170	0x3ba20914	0.00494493
171	0x3d69aa88	0.057047397
172	0x3e31578f	0.17318557
173	0xbca46c24	-0.020071097
174	0xbc155524	-0.009114537
175	0x3d43c2c5	0.04779317
176	0xbcbbda40	-0.022931218
177	0x3dbd67e9	0.09248335
178	0xbc187edd	-0.00930759
179	0xbb11c8a1	-0.0022244828
180	0x3e1b95d9	0.15193881
181	0x3d051978	0.032494992
182	0x3ceb8d1e	0.028753813
183	0x3d886706	0.06660275
184	0x3ce2507c	0.027626269
185	0x3db7af28	0.08968955
186	0xbc25a430	-0.010109946
187	0xbc9018c3	-0.017589932
188	0x3d98dca2	0.07463957
189	0x3d92172e	0.071333274
190	0xbccfe444	-0.0253774
191	0xbcbaed05	-0.022818098
192	0x3dee5bde	0.11638616
193	0x3d8130d1	0.06308139
194	0xbb3f783f	-0.002921596
195	0xbd63fcc2	-0.05566097
196	0xbd4ae327	-0.049533036
197	0xbdabfc6d	-0.08397756
198	0x3cc7ab39	0.024373638
199	0xbcabf325	-0.020989964
200	0x3e13d5e1	0.14437057
201	0x3dac34f7	0.0840854
202	0xbc3a0da3	-0.01135579
203	0xbca3cb70	-0.019994467
204	0xbdaf8aff	-0.08571433
205	0x3b721231	0.0036937112
206	0xbc277c16	-0.0102224555
207	0x3a1cf1d9	0.0005986966
208	0x3e1e8192	0.15479115
209	0x3d14327b	0.036180954
210	0x3c2d96dc	0.01059505
211	0xbd4aaf8b	-0.049483817
212	0xbd38dbf2	-0.04513163
213	0x3ae5108c	0.0017476245
214	0x3c70572a	0.014669219
215	0xbc76a8ad	-0.015054864
216	0x3d43dd9d	0.04781877
217	0x3d2b35d5	0.041799385
218	0xbccfa625	-0.025347779
219	0x3dab9d63	0.083796285
220	0x3d0aa74a	0.033850946
221	0xbdad5f90	-0.08465493
222	0x3d08112d	0.033219505
223	0x3d937aaa	0.07201131
224	0x3d673096	0.05644282
225	0xbc8aed16	-0.016958755
226	0xbcb7f7cb	-0.022457024
227	0x3d99ef27	0.07516318
228	0x3d56bfd5	0.05242904
229	0x3d06140d	0.032733966
230	0x3ccc399d	0.024929816
231	0x3ce8fbf1	0.028440448
232	0x3cc92712	0.024554763
233	0x3cdc363f	0.026881335
234	0xbbde7fdf	-0.0067901458
235	0x3d91c4ca	0.07117613
236	0x3daefa2b	0.085438095
237	0x3de7a949	0.113115855
238	0x3b63ff66	0.003478968
239	0x3d95fcf7	0.0732364
240	0x3e010fe3	0.12603717
241	0x3db0de14	0.08636108
242	0x3ca7ec0b	0.020498296
243	0x3d083785	0.033256073
244	0x3d122138	0.03567621
245	0xbe188ac7	-0.1489669
246	0xbcc8a228	-0.024491385
247	0x3d1c6508	0.03818229
248	0x3c66046f	0.014039143
249	0x3c888b6c	0.016668044
250	0xbaa6dec3	-0.0012731183
251	0x3cdd7a07	0.027035726
252	0x3c975e40	0.01847756
253	0xbded252d	-0.11579356
254	0xbc0e761f	-0.008695154
255	0xbb9a58a1	-0.0047102724

fc1.bias f4 [512]
0	0x3db988d7	0.09059303
1	0x3e0256c4	0.12728411
2	0x3d9f6aa7	0.07784014
3	0x3df3bba7	0.11901026
4	0xbe538f3d	-0.2066011
5	0xbd094bf1	-0.03351969
6	0xbd9cfeea	-0.076658085
7	0xbe045e67	-0.12926637
8	0xbdac3854	-0.08409181
9	0xbd235059	-0.039871547
10	0xbd5d24f2	-0.053990312
11	0xbdc036e8	-0.093854725
12	0xbe282c95	-0.16423257
13	0xbd33daa0	-0.04390967
14	0xbdf290e5	-0.11844043
15	0x39804f4e	0.0002447315
16	0xbe246305	-0.16053398
17	0x3dcdd892	0.10051073
18	0xbd911d5c	-0.07085678
19	0x3e15d667	0.14632569
20	0xbdb154ae	-0.086587295
21	0xbd44e2ec	-0.048067972
22	0x3e01a1a7	0.12659322
23	0x3d69ab62	0.05704821
24	0x3e50f6d9	0.20406665
25	0x3dfcfd49	0.12352998
26	0xbd1df55e	-0.03856408
27	0x3dfb45c6	0.122691676
28	0x3e58ef6f	0.21185087
29	0xbd54a0ed	-0.051911283
30	0xbe356435	-0.17714007
31	0x3c13a4e0	0.009011477
32	0x3d8896d7	0.066693954
33	0x3b8cbefb	0.0042952276
34	0xbc891e39	-0.016738044
35	0x3e05d567	0.13069688
36	0x3e0ec607	0.13942729
37	0x3d06e468	0.03293267
38	0xbd58de2d	-0.05294626
39	0x3d9a7fe0	0.075439215
40	0xbe6578bd	-0.22409339
41	0xbe022a7a	-0.12711516
42	0x3e0838a7	0.13302861
43	0x3dc1e872	0.094681635
44	0x3cebc646	0.028781068
45	0xbd3bec36	-0.045879565
46	0xbcda89cc	-0.026677035
47	0xbc1a90da	-0.009433949
48	0x3dbb893f	0.09157037
49	0xbe1e1128	-0.15436232
50	0xbd165465	-0.03670158
51	0xbe3b0e7b	-0.18267243
52	0xbe4ec58a	-0.20192543
53	0xbd9c61d1	-0.076358445
54	0x3c709e97	0.014686248
55	0xbe42278a	-0.18960395
56	0x3e43cef7	0.1912192
57	0x3e24f7dc	0.16110176
58	0x3dd1f1ca	0.10251196
59	0x3c69b1c9	0.014263579
60	0xbe10bd0f	-0.1413462
61	0x3da3d13d	0.079988934
62	0xbdff75a4	-0.1247361
63	0x3c34e3ec	0.011040669
64	0xbe89a84f	-0.26886222
65	0x3d8258a2	0.063645616
66	0x3cbc786d	0.023006642
67	0xbe8671c8	-0.26258683
68	0xbe29629c	-0.16541523
69	0x3e03a83b	0.12857144
70	0x3b14630f	0.0022642051
71	0x3dde70d9	0.10861368
72	0xbe43d572	-0.19124392
73	0x3e173bf8	0.1476897
74	0xbe058012	-0.13037136
75	0xbe5ea68a	-0.21743217
76	0xbe0d9459	-0.13826121
77	0x3d39b3c9	0.045337472
78	0x3da00fb3	0.078154944
79	0x3de4efb3	0.111785315
80	0x3d3977fb	0.045280438
81	0xbdf6f50d	-0.120584585
82	0x3d7d1d7e	0.061795704
83	0x3d160ba8	0.03663221
84	0x3e0b50c9	0.13605036
85	0x3e540652	0.20705536
86	0xbdc335d2	-0.0953175
87	0x3db53b95	0.08849255
88	0x3c6318c9	0.01386089
89	0x3d9623e7	0.073310666
90	0xbdba9935	-0.09111253
91	0xbc7f1bd7	-0.015570602
92	0xbd8b1290	-0.0679065
93	0x3e23d1bc	0.15997976
94	0xbe44b87a	-0.19210997
95	0xbe3912d1	-0.18073584
96	0xbcaf7219	-0.02141671
97	0x3da1f347	0.079077296
98	0x3c798d04	0.015231375
99	0x3dc678fc	0.09691045
100	0x3d1412ff	0.03615093
101	0xbdb2ed7f	-0.08736705
102	0xbdb1cefb	-0.086820565
103	0x3c35674b	0.01107199
104	0xbe506689	-0.20351614
105	0xbc7834a2	-0.015149267
106	0xbe14f9ab	-0.14548366
107	0x3d89378d	0.067000486
108	0x3d2cfc5b	0.042232852
109	0x3ddce562	0.10785939
110	0xbe4deae4	-0.20109135
111	0xbe342845	-0.17593487
112	0xbe291287	-0.16510974
113	0x3e68a155	0.22717793
114	0x3e31ea65	0.1737457
115	0x3d9b0521	0.07569338
116	0x3e159e2a	0.14611116
117	0x3dd251e5	0.102695264
118	0x3bbffbc4	0.00585887
119	0xbda73c8a	-0.08165844
120	0x3c08e9d5	0.008356531
121	0xbc3f2fbd	-0.011669097
122	0xbca98e82	-0.020697836
123	0xbd92002c	-0.07128939
124	0xbda3e1ec	-0.080020756
125	0xbc8a3ce2	-0.016874734
126	0xbe39f763	-0.18160777
127	0x3dcfbcc8	0.10143429
128	0x3e3f7013	0.18695097
129	0xbdec99fe	-0.11552809
130	0xbd49c563	-0.04926051
131	0x3e74d9c2	0.23911193
132	0x3e294825	0.16531427
133	0x3db3ef32	0.08785857
134	0xbe0a9853	-0.1353467
135	0x3be29276	0.006914432
136	0x3e177476	0.1479052
137	0xbc8e8ddf	-0.017401634
138	0x3d9a06d6	0.07520835
139	0xbd404b05	-0.046946544
140	0x3c6094f2	0.013707386
141	0x3ddfa06c	0.1091927
142	0xbc0dfa4a	-0.008665631
143	0xbe405280	-0.18781471
144	0xbd03ac1c	-0.03214656
145	0x3dbfa1cd	0.09357033
146	0xbda30de0	-0.07961631
147	0xbe15844e	-0.14601251
148	0x3c75b58c	0.014996897
149	0xbe5cee91	-0.21575381
150	0xbe281278	-0.16413295
151	0xbde64911	-0.11244405
152	0xbe51bad7	-0.2048143
153	0x3d8bfb90	0.06835091
154	0x3db4aa11	0.088215
155	0xbdabd7be	-0.08390759
156	0x3dede453	0.11615815
157	0xbdc1747d	-0.094460465
158	0x3db9db3c	0.09075019
159	0xbe844554	-0.25834143
160	0x3da5c575	0.080943026
161	0xbdc9d0e8	-0.09854299
162	0xbdacc01a	-0.08435078
163	0xbe039f90	-0.12853837
164	0xbe24a652	-0.16079071
165	0x3dfce46f	0.12348258
166	0x3dec32c1	0.11533118
167	0xbd2e1a91	-0.042505804
168	0xbd8788d8	-0.06617898
169	0x3de39444	0.11112264
170	0x3cd28009	0.025695818
171	0x3e0ee0b6	0.13952908
172	0xbc9038b9	-0.017605172
173	0x396905b8	0.00022222742
174	0xbe290b92	-0.1650832
175	0xbe4e9c06	-0.20176706
176	0x3d236746	0.03989341
177	0xbe663093	-0.22479467
178	0x3d85c7e0	0.06532264
179	0x3dee5056	0.116364166
180	0xbcdbf089	-0.026848095
181	0xbdb4d79c	-0.08830187
182	0x3db44037	0.088013105
183	0x3e49e75d	0.19717164
184	0x3e2f1bf2	0.17100504
185	0x3dcfe450	0.10150969
186	0xbe4fa15d	-0.20276399
187	0xbdb3d5ed	-0.087810375
188	0xbe896317	-0.26833412
189	0xbdb78ac3	-0.089620136
190	0xbdc21e0e	-0.09478389
191	0xbe298482	-0.16554454
192	0x3d10d351	0.035357777
193	0x3e0f480f	0.13992332
194	0x3dc1ae75	0.09457103
195	0x3d54a691	0.051916663
196	0x3d632802	0.055458076
197	0xbd4ffb0b	-0.050776523
198	0xbdb40944	-0.0879083
199	0x3e663419	0.22480811
200	0xbe4f0814	-0.20217925
201	0xbd0c04e6	-0.03418436
202	0xbe34f7fc	-0.17672724
203	0xbe309990	-0.1724608
204	0xbd8bf78b	-0.068343244
205	0x3ded4736	0.11585848
206	0x3e0465cf	0.12929462
207	0xbe0bc761	-0.13650276
208	0x3cdc337d	0.02688002
209	0xbc99bf0e	-0.01876786
210	0x3d19026c	0.037355825
211	0x3e09af72	0.13445833
212	0x3e54e8cc	0.2079193
213	0x3a9247bf	0.0011160298
214	0xbbbb1c49	-0.005710159
215	0xbdf77451	-0.120827325
216	0xbe7c74ee	-0.2465398
217	0xbbf9acc4	-0.007619472
218	0xbda30456	-0.079598114
219	0xbc917f00	-0.017760754
220	0x3e52af3f	0.20574664
221	0xbdb9157e	-0.090373024
222	0x3d2d106b	0.042251986
223	0xbe2c943c	-0.16853422
224	0x3d8fdf34	0.070249945
225	0xbd506fd1	-0.050887886
226	0xbdd96c36	-0.10616343
227	0xbe002589	-0.12514319
228	0xbdcb9a74	-0.09941569
229	0x3d50b953	0.05095799
230	0xbe3a04c8	-0.18165886
231	0x3dedfb6b	0.1162022
232	0x3dc52d33	0.09627762
233	0x3e21a9ff	0.15787505
234	0xbde138fa	-0.109971955
235	0x3e0209e4	0.12699085
236	0x3e3ef08a	0.18646446
237	0x3e11ab41	0.14225484
238	0xbe5e2adb	-0.21696036
239	0xbe59f281	-0.21283914
240	0xbd094b1c	-0.033518896
241	0xbe49db2b	-0.19712512
242	0x3cb574b0	0.022150367
243	0x3d817eba	0.06322999
244	0xbd9ff139	-0.078096814
245	0xbe41e941	-0.18936636
246	0x3d9e59ee	0.077319965
247	0xbcd091ba	-0.025460113
248	0x3e26fc6e	0.16307232
249	0xbe4adf11	-0.19811656
250	0xbe26343f	-0.16230868
251	0xbe3fa629	-0.18715729
252	0x3e0ea57d	0.13930316
253	0x3d8fb45e	0.07016824
254	0xbda1c818	-0.07899493
255	0x3d238967	0.03992596

ln1.weight f4 [512]
0	0x3f87b207	1.0601205
1	0x3f863e07	1.0487679
2	0x3f8c5ac1	1.0965196
3	0x3f855dab	1.041921
4	0x3f81f443	1.0152668
5	0x3f847e16	1.0350978
6	0x3f85c70a	1.0451367
7	0x3f86b186	1.0522926
8	0x3f8515bc	1.0397258
9	0x3f87adaf	1.0599879
10	0x3f85ffef	1.046873
11	0x3f79e280	0.97611237
12	0x3f858b18	1.0433073
13	0x3f9265df	1.1437339
14	0x3f84bd53	1.0370277
15	0x3f8a48cc	1.0803466
16	0x3f8a8297	1.0821103
17	0x3f9327c6	1.1496513
18	0x3f92ca52	1.1467993
19	0x3f922e71	1.1420423
20	0x3f84db7f	1.0379485
21	0x3f8d8e60	1.1059074
22	0x3f87b6c4	1.0602651
23	0x3f877bf0	1.0584698
24	0x3f8c55a3	1.0963634
25	0x3f8d7a22	1.1052897
26	0x3f8775fc	1.0582881
27	0x3f8c5714	1.0964074
28	0x3f8e6db8	1.1127234
29	0x3f80cd65	1.0062681
30	0x3f8add82	1.0848849
31	0x3f86c5b3	1.0529083
32	0x3f8e49eb	1.1116308
33	0x3f8a2882	1.0793612
34	0x3f8ae11a	1.0849946
35	0x3f8640b9	1.0488502
36	0x3f91a7f8	1.1379385
37	0x3f889a1e	1.0672033
38	0x3f8526f1	1.0402509
39	0x3f90f17b	1.1323694
40	0x3f8627c4	1.0480886
41	0x3f8eb3c4	1.114861
42	0x3f8dcd56	1.1078289
43	0x3f8c793a	1.0974495
44	0x3f8b851f	1.09
45	0x3f8301b8	1.02349
46	0x3f9094c4	1.12954
47	0x3f8c9926	1.0984237
48	0x3f88ca70	1.0686779
49	0x3f843cdb	1.0331072
50	0x3f8372e0	1.0269432
51	0x3f872dce	1.0560853
52	0x3f893ead	1.0722252
53	0x3f87f502	1.0621645
54	0x3f9039fb	1.1267694
55	0x3f84b3d7	1.0367383
56	0x3f8e63ff	1.1124266
57	0x3f8f3672	1.118849
58	0x3f81adb1	1.0131131
59	0x3f86cfcd	1.0532166
60	0x3f86ed67	1.05412
61	0x3f85acf3	1.0443405
62	0x3f91e8cc	1.1399169
63	0x3f8627f1	1.0480939
64	0x3f83dcb9	1.0301734
65	0x3f8f8693	1.1212944
66	0x3f92333b	1.1421884
67	0x3f85a751	1.0441686
68	0x3f896b16	1.0735805
69	0x3f867c3c	1.0506663
70	0x3f927c0b	1.1444105
71	0x3f8821a2	1.0635264
72	0x3f82a5a3	1.0206798
73	0x3f8bc939	1.0920783
74	0x3f82df22	1.0224345
75	0x3f9517b9	1.1647865
76	0x3f8fd1b3	1.123587
77	0x3f824457	1.0177106
78	0x3f9a1a87	1.2039346
79	0x3f84f8ef	1.0388469
80	0x3f8b8e24	1.0902753
81	0x3f8d71f5	1.1050402
82	0x3f8c5452	1.0963233
83	0x3f87ce38	1.0609808
84	0x3f92168b	1.141313
85	0x3f8a2a50	1.0794163
86	0x3f87e2aa	1.0616047
87	0x3f8881e7	1.0664643
88	0x3f88cdb9	1.0687782
89	0x3f810428	1.0079393
90	0x3f6af5a5	0.91781074
91	0x3f868185	1.0508276
92	0x3f86923d	1.0513378
93	0x3f8923cc	1.0714049
94	0x3f8edb49	1.116067
95	0x3f80b194	1.0054193
96	0x3f8f64cb	1.1202635
97	0x3f82953b	1.0201792
98	0x3f8ab060	1.0835075
99	0x3f86c022	1.0527384
100	0x3f8753fd	1.0572506
101	0x3f972826	1.1809127
102	0x3f852fbd	1.0405194
103	0x3f8928c4	1.0715566
104	0x3f894820	1.0725136
105	0x3f8b3a95	1.0877253
106	0x3f87bcee	1.0604532
107	0x3f8a1619	1.0787994
108	0x3f901ed7	1.1259412
109	0x3f92bff2	1.1464827
110	0x3f8a7b9c	1.0818973
111	0x3f8265d2	1.0187323
112	0x3f8ca006	1.0986335
113	0x3f8c569f	1.0963935
114	0x3f8f393c	1.1189342
115	0x3f8d6e04	1.1049199
116	0x3f834e71	1.0258313
117	0x3f8f7871	1.1208631
118	0x3f9794ba	1.1842263
119	0x3f8a1ab6	1.0789402
120	0x3f8b4f57	1.0883588
121	0x3f883a47	1.0642785
122	0x3f86a3b3	1.0518707
123	0x3f8cccd9	1.1000015
124	0x3f9c5d6d	1.2216011
125	0x3f8a08b5	1.0783907
126	0x3f848430	1.035284
127	0x3f8c131a	1.0943329
128	0x3f8d323b	1.1030954
129	0x3f936aa8	1.1516924
130	0x3f90869e	1.1291082
131	0x3f8c681f	1.0969275
132	0x3f9315e3	1.1491054
133	0x3f89a618	1.0753813
134	0x3f7edb75	0.99553615
135	0x3f86bab3	1.0525726
136	0x3f8a10b0	1.0786343
137	0x3f88fa01	1.0701295
138	0x3f8e4f5d	1.111797
139	0x3f925292	1.1431448
140	0x3f98987c	1.1921535
141	0x3f95d9b1	1.1707059
142	0x3f8730ab	1.0561727
143	0x3f82b7bc	1.0212321
144	0x3f8dc364	1.1075253
145	0x3f86ecb9	1.0540992
146	0x3f8aaf08	1.0834665
147	0x3f84d73f	1.0378188
148	0x3f87753e	1.0582654
149	0x3f85f17e	1.0464323
150	0x3f8fa414	1.1221948
151	0x3f84e2bf	1.0381697
152	0x3f8b2a1b	1.0872225
153	0x3f8e5ee3	1.1122707
154	0x3f87a088	1.0595865
155	0x3f8dbe2b	1.107366
156	0x3f8d239c	1.1026492
157	0x3f89c1ed	1.0762306
158	0x3f8e96d8	1.1139784
159	0x3f8948ff	1.0725402
160	0x3f8db9a7	1.1072282
161	0x3f8769fe	1.0579221
162	0x3f8be0a7	1.0927933
163	0x3f85894d	1.0432526
164	0x3f872246	1.0557334
165	0x3f8ddae2	1.1082423
166	0x3f8c99e4	1.0984464
167	0x3f8f14e8	1.1178255
168	0x3f8f5f7e	1.1201017
169	0x3f88a06a	1.0673954
170	0x3f84cfa3	1.0375866
171	0x3f910979	1.1331016
172	0x3f863125	1.0483748
173	0x3f8d4a1d	1.1038243
174	0x3f861aad	1.0476891
175	0x3f9713f4	1.1802964
176	0x3f8f7b3c	1.1209483
177	0x3f931df7	1.149352
178	0x3f936cbc	1.1517558
179	0x3f868d0c	1.0511794
180	0x3f881bd9	1.0633498
181	0x3f87878d	1.0588242
182	0x3f8b4c8b	1.0882734
183	0x3f8b77d1	1.089594
184	0x3f900954	1.1252847
185	0x3f8cedf7	1.1010121
186	0x3f860fb2	1.047354
187	0x3f83f0cb	1.0307859
188	0x3f920b36	1.1409671
189	0x3f884cfd	1.0648495
190	0x3f8b09c3	1.0862354
191	0x3f8d1cfb	1.1024469
192	0x3f8ad1b2	1.0845244
193	0x3f8b1de4	1.0868497
194	0x3f8dea7e	1.1087186
195	0x3f895809	1.0729991
196	0x3f8bfa08	1.0935678
197	0x3f8e7fcc	1.113275
198	0x3f86d1d1	1.0532781
199	0x3f8c8a4e	1.0979707
200	0x3f861c1a	1.0477326
201	0x3f864bd6	1.0491893
202	0x3f96d2f9	1.1783134
203	0x3f8cf0a2	1.1010935
204	0x3f8899bd	1.0671917
205	0x3f93a07e	1.1533353
206	0x3f8a6728	1.0812731
207	0x3f8b5f2b	1.0888418
208	0x3f8b1130	1.086462
209	0x3f892923	1.0715679
210	0x3f8e12f6	1.1099536
211	0x3f966e7b	1.1752466
212	0x3f890202	1.0703738
213	0x3f878166	1.0586364
214	0x3f8c1603	1.0944217
215	0x3f89fffa	1.0781243
216	0x3f85b7b9	1.0446693
217	0x3f8fd908	1.1238108
218	0x3f94bac5	1.1619498
219	0x3f892c14	1.0716577
220	0x3f8df3a3	1.1089977
221	0x3f83f933	1.0310425
222	0x3f84d933	1.0378784
223	0x3f8809cd	1.0627991
224	0x3f96601b	1.1748079
225	0x3f852e52	1.0404761
226	0x3f88d7be	1.0690839
227	0x3f817869	1.0114871
228	0x3f85aade	1.044277
229	0x3f89347c	1.0719142
230	0x3f885359	1.0650436
231	0x3f90b7b0	1.1306057
232	0x3f8645c2	1.0490038
233	0x3f8cc9ae	1.0999048
234	0x3f839058	1.0278425
235	0x3f85dc12	1.0457785
236	0x3f8b8ae4	1.0901761
237	0x3f963508	1.1734934
238	0x3f84b03d	1.0366284
239	0x3f8851c7	1.0649956
240	0x3f903ff1	1.1269513
241	0x3f86a836	1.0520084
242	0x3f844691	1.0334035
243	0x3f9c880d	1.2229019
244	0x3f8130d1	1.0093023
245	0x3f842922	1.0325053
246	0x3f983522	1.1891215
247	0x3f8c1f66	1.0947082
248	0x3f971ea2	1.1806223
249	0x3f869bd6	1.0516307
250	0x3f853572	1.0406935
251	0x3f9b62d2	1.2139533
252	0x3f894ccf	1.0726565
253	0x3f899fa6	1.0751846
254	0x3f879aa2	1.0594065
255	0x3f8a72cf	1.0816287

ln1.bias f4 [512]
0	0x3bbfd20a	0.005853896
1	0x3c4f01ac	0.012634676
2	0x3d11c8c7	0.035591867
3	0x3c8bb68f	0.017054824
4	0x3d0edd29	0.034878884
5	0x3d77dec5	0.060515184
6	0x3c990c52	0.018682633
7	0x3c7e3da9	0.015517631
8	0xbc760ebf	-0.015018164
9	0x3bf4ed74	0.0074745957
10	0x3c59a1d1	0.013283209
11	0x3cdd6cb5	0.027029375
12	0x3c7412d9	0.014897072
13	0x3bdfe21f	0.0068323757
14	0x3cd5d167	0.026100827
15	0xbc642c16	-0.0139265265
16	0xbd16e1be	-0.03683638
17	0xbc595cf2	-0.013266789
18	0x3cfbd854	0.030742802
19	0xbc7bd94a	-0.01537163
20	0x3cbf62a2	0.023362461
21	0x3c4c70c6	0.012478059
22	0xbc8e35ee	-0.0173597
23	0xbbdd2d54	-0.0067497883
24	0x3c945375	0.018106202
25	0xbbe51399	-0.0069908616
26	0x3c66f471	0.014096365
27	0x3ce6606e	0.028122153
28	0x3cc0d551	0.023539217
29	0x3c7f4e12	0.015582578
30	0x3b223c7d	0.0024755292
31	0x3d83f364	0.064429075
32	0x3c4e6766	0.012597894
33	0x3d2841a8	0.04107824
34	0xba97e0eb	-0.0011587417
35	0x3c96ee6c	0.018424235
36	0x3cc958f8	0.024578556
37	0x3c90edd5	0.017691532
38	0x3ca261d9	0.019822048
39	0xbc05a54b	-0.008157085
40	0x3bfa80a2	0.0076447288
41	0xbb754e5b	-0.0037430737
42	0x3be19639	0.006884363
43	0x3d483d7d	0.048886765
44	0x3d06f15f	0.032945033
45	0x3cb5990e	0.022167709
46	0xbcb55d8c	-0.022139333
47	0x3b1f51e1	0.0024310278
48	0x3d370f14	0.044692114
49	0x3d50a26a	0.05093614
50	0x3b67dedb	0.0035380635
51	0xbc858795	-0.016300002
52	0x3c6f9d19	0.014624857
53	0x3bf6f2f8	0.0075362884
54	0x3cd07d8c	0.02545049
55	0x3dab50d3	0.08365025
56	0x3bcac3c7	0.0061878893
57	0xbb5b9886	-0.003350766
58	0x3c8ad07c	0.016945116
59	0xb9e91191	-0.0004445431
60	0xba8b5f07	-0.0010633179
61	0x3cc50403	0.024049764
62	0x3b81a256	0.0039561195
63	0xbbf67bb7	-0.007522072
64	0x3c81c79a	0.015842248
65	0x3cb85313	0.02250055
66	0xbc72243b	-0.014779146
67	0x3bc2dde9	0.005946864
68	0xbaf87eca	-0.0018958685
69	0xbbf9305a	-0.007604641
70	0x3cda23f3	0.02662847
71	0x3cc5dd38	0.024153337
72	0x3d760fa9	0.06007353
73	0x3cf11844	0.029430516
74	0x3be7d784	0.007075252
75	0x3c05e724	0.008172784
76	0x3b34fa12	0.0027614874
77	0x3b54844d	0.003242749
78	0x3ba06422	0.0048947493
79	0x3d543fe4	0.051818743
80	0xbc2c81c0	-0.010528982
81	0x3caae32c	0.020860277
82	0xbb720611	-0.0036929885
83	0xbbc18a64	-0.00590639
84	0xbc6987dc	-0.014253583
85	0x3d910dbf	0.070827
86	0xbc241dbd	-0.010016856
87	0xbc9b03ba	-0.018922675
88	0x3cd95769	0.026530938
89	0xbaa0033b	-0.0012207994
90	0x3db04463	0.08606794
91	0xbca5c00f	-0.020233182
92	0xbac1dc0a	-0.0014790308
93	0x3c661602	0.014043333
94	0x3bef4138	0.007301476
95	0x3d845309	0.0646115
96	0xbc97c62d	-0.018527115
97	0xbb16025b	-0.0022889588
98	0x3c284230	0.010269687
99	0x3b1acd93	0.0023621067
100	0x3c010c2a	0.007876435
101	0xbd194fa6	-0.037429474
102	0x3d05ae23	0.032636773
103	0x3b13d75f	0.002255879
104	0xbc8801ec	-0.016602479
105	0x3cc60ce1	0.024176063
106	0xbbd90924	-0.006623404
107	0xbccb49a7	-0.024815394
108	0x3c77dd3b	0.015128429
109	0x3c68228a	0.014168391
110	0x3d065697	0.032797422
111	0x3d3a74be	0.04552149
112	0xbc738d36	-0.01486521
113	0x3d09893f	0.033578154
114	0x3d179fa2	0.037017472
115	0x3bd2c01a	0.0064315917
116	0xbb359e36	-0.002771271
117	0x3db50fee	0.08840929
118	0x3c841f31	0.016128154
119	0x3c00d3c0	0.007862985
120	0x3bd2b5d4	0.006430367
121	0xbc0d4bed	-0.008624059
122	0x3ce95e0c	0.028487228
123	0x3bc95957	0.0061446833
124	0x3d0cf55e	0.034413688
125	0x3cfa2dde	0.03053945
126	0x3cf8711c	0.030327372
127	0xbd2ab758	-0.041678756
128	0xbbdebde4	-0.006797539
129	0xbbe82e3e	-0.0070855906
130	0xbc92d8d7	-0.017925663
131	0xbc0b13bf	-0.008488595
132	0xbc2104db	-0.009827818
133	0xbab9500b	-0.0014138235
134	0x3c5e6899	0.013574743
135	0xbbd733c3	-0.00656745
136	0xbc65640e	-0.014000906
137	0x3c6c0e39	0.014407688
138	0x3cabda63	0.020978158
139	0xbc8dc96c	-0.01730796
140	0x3bd148bf	0.006386846
141	0x3caf92f4	0.021432377
142	0x3c5ac9f0	0.01335381
143	0x3d6b7f16	0.057494245
144	0x3cdcbb65	0.026944825
145	0x3baa2555	0.0051924386
146	0xbc0e34f4	-0.008679617
147	0xbaf2951c	-0.0018507573
148	0x3c727078	0.014797322
149	0xbb525745	-0.0032095474
150	0x3b58b8f2	0.003306922
151	0xbc987393	-0.018609798
152	0x3d33971a	0.043845274
153	0xbbefaff2	-0.0073146755
154	0xbc41adfb	-0.011821265
155	0x3cd4b08a	0.025963087
156	0x3d1f71d0	0.0389269
157	0xbcb6a0ff	-0.022293566
158	0xba831698	-0.001000124
159	0x3b793a8a	0.0038029277
160	0xbc6cb73d	-0.014447984
161	0xbc9ba45c	-0.018999271
162	0xbc95fe04	-0.0183096
163	0x3d3074c0	0.04308009
164	0x3c37aa83	0.011210087
165	0x3b6e6389	0.0036375246
166	0x3c945d48	0.018110886
167	0x3b8bf5b8	0.0042712353
168	0x3d219aa0	0.039454103
169	0xbc451ec3	-0.01203126
170	0x3c6406ab	0.013917605
171	0x3c7d608b	0.015464912
172	0x3c31a641	0.010842861
173	0x3c9312a9	0.017953234
174	0x3b980e90	0.004640408
175	0x3ccdd2ed	0.025124991
176	0x3c4255f4	0.011861313
177	0x3c8b9c1c	0.017042212
178	0x3cbc88c5	0.023014436
179	0x3cd797c2	0.026317481
180	0x3d61989a	0.055077173
181	0xbc649a1a	-0.013952756
182	0x3b5ec0b9	0.0033989383
183	0xbc843c6b	-0.01614209
184	0x3bf7894a	0.007554208
185	0x3c4ddbef	0.012564643
186	0xbc33e89f	-0.010980754
187	0x3ccbfcbb	0.024900785
188	0xbcc36209	-0.023850458
189	0xbc3a0ead	-0.011356038
190	0x3ca5fba9	0.020261602
191	0x3d067ebf	0.03283572
192	0xbcd9180b	-0.026500722
193	0xbbd32248	-0.0064432956
194	0xbb6b0c19	-0.0035865365
195	0x3cb1def5	0.02171276
196	0x3c2de19e	0.010612873
197	0xbb0f1477	-0.0021832266
198	0x3c0bfe8b	0.0085445745
199	0xbc078cdb	-0.008273329
200	0xbb5fccef	-0.003414925
201	0xbc1ec1f3	-0.009689796
202	0x3c7191b5	0.014744212
203	0xbd01fefb	-0.03173731
204	0x3ca88d0d	0.02057507
205	0x3ce41907	0.027843965
206	0xbc5282b8	-0.012848549
207	0xbc8dbceb	-0.017301997
208	0xbab17fca	-0.0013542112
209	0x3bec4a52	0.007211008
210	0x3c697134	0.014248181
211	0x3c1bdb29	0.009512701
212	0xbcd0af16	-0.025474112
213	0x3ca10d85	0.019659767
214	0xbac6cc5b	-0.0015167104
215	0xbc6f4288	-0.014603265
216	0x3c8675af	0.016413538
217	0x3cfc136d	0.030770982
218	0xbb443fae	-0.0029945183
219	0x3d548161	0.051881198
220	0xbbb77435	-0.0055985698
221	0x3cd716c7	0.026255978
222	0xbbe1c7c3	-0.0068902685
223	0xbd00ddca	-0.031461515
224	0x3cbe9333	0.02326355
225	0x3cc74eff	0.02432966
226	0x3cc0bf3a	0.023528684
227	0x3d2118fd	0.03933047
228	0xbc7be137	-0.01537352
229	0x3bd8f905	0.0066214823
230	0xbcc463a0	-0.023973286
231	0xbcf0b13a	-0.029381383
232	0x3c89b362	0.01680917
233	0x3d5d947a	0.054096676
234	0xbcb51d4b	-0.022108695
235	0x3b886376	0.0041622473
236	0x3d575fda	0.052581646
237	0xbd203606	-0.03911402
238	0x3d55ea2c	0.052225277
239	0x3befa927	0.0073138657
240	0xbb1453b5	-0.00226329
241	0x3c721894	0.014776368
242	0x3ba685e2	0.005081878
243	0x3cd103ce	0.02551451
244	0x3ca54725	0.020175526
245	0x3c38d727	0.011281765
246	0xbba4f9c7	-0.0050346586
247	0x3b3eebef	0.0029132327
248	0xbbfa0890	-0.0076304153
249	0x3c81dc6b	0.015852174
250	0x3c4a050b	0.012330304
251	0x3c3fdf17	0.011710904
252	0x3c934dfc	0.017981522
253	0x3c857338	0.016290292
254	0x3a4d4e76	0.0007831821
255	0xbc4d7000	-0.01253891

fc2.weight f4 [256, 512]
0	0xbd6d4137	-0.05792352
1	0x3d8bf4b1	0.068337806
2	0x3d8054b0	0.06266153
3	0xbd8cf997	-0.06883543
4	0x3d7b940d	0.06142049
5	0xbcf06871	-0.029346677
6	0xbdaf4e08	-0.08559805
7	0x3d5ba17a	0.053620793
8	0xbcf10126	-0.029419493
9	0xbb953603	-0.004553558
10	0xbb35e28c	-0.002775344
11	0x3d8af259	0.067845054
12	0xbd44628e	-0.04794555
13	0xbda2d013	-0.07949843
14	0x3dc63cac	0.09679541
15	0x3d95bcf2	0.07311429
16	0xbcc239e8	-0.023709252
17	0x3e268f92	0.16265705
18	0xbd63e977	-0.05564257
19	0x3c41add3	0.011821228
20	0xbd291d8c	-0.041287944
21	0xbd86a4c3	-0.065743946
22	0x3d489aa8	0.048975617
23	0x3d8f1a28	0.06987411
24	0xbce0fbff	-0.027463911
25	0x3e363332	0.17792967
26	0xbc02c51c	-0.007981565
27	0x3d83a43f	0.06427812
28	0x3bad3227	0.0052855196
29	0x3cb849ca	0.022496123
30	0xbd8e6df6	-0.06954567
31	0xbd5075cb	-0.050893586
32	0x3e540b13	0.2070735
33	0x3d05e4f9	0.03268907
34	0x3e0e2a34	0.13883287
35	0xbdb96c7f	-0.09053897
36	0x3df8087d	0.12110994
37	0xbca5615e	-0.02018803
38	0xbdd9716b	-0.10617336
39	0xb9d395cb	-0.0004035666
40	0xbdb527b0	-0.088454604
41	0xbdc7b685	-0.0975161
42	0x3d8e5189	0.06949145
43	0x3d429774	0.04750772
44	0xbd6f2004	-0.05838014
45	0xbdc8e42e	-0.09809147
46	0xbe868cea	-0.26279384
47	0xbdc086c0	-0.094007015
48	0xbd8de06e	-0.06927572
49	0xbd25cc54	-0.040478066
50	0x3dec1e65	0.11529235
51	0xbe1c0e2d	-0.15239783
52	0xbd67c28d	-0.056582022
53	0xbd8de6c1	-0.069287784
54	0xbc95fe54	-0.01830975
55	0x3d5140f7	0.051087346
56	0xbd873d90	-0.06603539
57	0x3d9bb52f	0.076029174
58	0xbdc42877	-0.095780306
59	0xbd17d9dd	-0.037073005
60	0xbd303a89	-0.043024573
61	0x3e0cfa77	0.1376742
62	0x3dc1b970	0.094591975
63	0xbe02fd16	-0.12791857
64	0x3d2af4be	0.04173731
65	0x3e09bd96	0.13451228
66	0x3cd93a15	0.026516953
67	0xbd660ea0	-0.05616629
68	0x3c00220e	0.007820619
69	0x3c1f08c1	0.009706677
70	0x3dd40318	0.103521526
71	0xbd4c8647	-0.049932744
72	0x3dc3f78c	0.095687
73	0xbcbff6a5	-0.023433039
74	0x3d890e5a	0.066921905
75	0x3d7f75eb	0.062368315
76	0x3d6455a9	0.055745754
77	0xbd542803	-0.05179597
78	0xbd99f733	-0.07517853
79	0x3ca8a1c6	0.020584952
80	0x3d132b48	0.035929948
81	0x3d9fb294	0.07797733
82	0xbce91da9	-0.028456526
83	0xbc560586	-0.01306284
84	0x3e184140	0.14868641
85	0x3ce62b43	0.0280968
86	0x3dcd7c52	0.10033478
87	0xbcd44352	-0.025911007
88	0x3e1fac75	0.15593131
89	0x3d490a01	0.049081806
90	0x3d5c9905	0.05385687
91	0xbd95aea0	-0.07308698
92	0x3d841b62	0.06450535
93	0xbd63b9cb	-0.055597108
94	0x3df4d6bb	0.11955019
95	0x3dc26da5	0.09493569
96	0xbd9b5691	-0.075848706
97	0x3d493830	0.04912585
98	0x3e2d5f7e	0.16930959
99	0xbc74661b	-0.014916922
100	0x3dec3662	0.1153381
101	0xbd52ca5f	-0.051462527
102	0xbd8e89cd	-0.06959877
103	0xbd9c4afd	-0.076314904
104	0xbde93296	-0.113866016
105	0xbe00b696	-0.12569651
106	0x3d070944	0.03296782
107	0xb9874fe5	-0.00025808733
108	0xbd4d432e	-0.050112896
109	0x3dba4eae	0.09097038
110	0x3cbc85e4	0.023013063
111	0xbc0777ea	-0.008268336
112	0xbdd37ac3	-0.10326149
113	0x3dc09c8d	0.0940486
114	0xbd9be6c3	-0.07612374
115	0xbd4ebd4a	-0.05047349
116	0xbbd61b39	-0.006534007
117	0xbdcf999a	-0.10136719
118	0x3e016208	0.12635052
119	0x3c3ac60a	0.011399755
120	0xbe0ad43d	-0.13557525
121	0xbb6b2ab5	-0.003588361
122	0x3cf8499e	0.03030854
123	0x3d92751e	0.071512446
124	0x3e3b1494	0.18269569
125	0x3d9ab6d9	0.07554407
126	0xbc4ea74f	-0.012613132
127	0xbd39daa4	-0.045374528
128	0xbd88c494	-0.06678119
129	0xbd821e97	-0.06353491
130	0xbd3bc90b	-0.045846026
131	0xbdcaf599	-0.09910125
132	0x3dc51ec6	0.0962501
133	0x3da689b6	0.08131735
134	0x3d6d00c1	0.057862047
135	0xbe1d8057	-0.15380989
136	0xbc4d3c1e	-0.01252654
137	0xbdb850f3	-0.08999815
138	0x3db6efa6	0.08932428
139	0x3d9f122f	0.0776714
140	0x3d9c8667	0.07642823
141	0xbd1d343d	-0.038379896
142	0xbc648255	-0.013947089
143	0x3ce361b8	0.027756557
144	0x3e3aedff	0.18254851
145	0xbd42c98d	-0.047555495
146	0xba063e9f	-0.00051210256
147	0xbca5aebf	-0.020224927
148	0xbd12f0b9	-0.035874102
149	0x3c2daa90	0.010599747
150	0xbad1238e	-0.0015956031
151	0xbd95f1c1	-0.073215015
152	0x3db5fdee	0.08886324
153	0x3d636c66	0.0555233
154	0xbd2b24ef	-0.04178327
155	0x3e2db39e	0.1696305
156	0x3d7259f9	0.059167836
157	0x3cb7621d	0.022385651
158	0x3d0d0d95	0.03443678
159	0xbd57a38f	-0.052646216
160	0xbcffd9be	-0.031231757
161	0xbda205f8	-0.07911295
162	0xbc44f3e4	-0.012021039
163	0x3d6175ca	0.055043973
164	0x3dd8f460	0.10593486
165	0x3e817c89	0.25290325
166	0xbdc5a124	-0.09649876
167	0x3d4f79bc	0.050653204
168	0x3cced9e2	0.025250379
169	0xbe0599ff	-0.13047026
170	0xbd5823b1	-0.052768413
171	0x3ad23875	0.0016038554
172	0xbdbb5844	-0.09147695
173	0x3dab54d2	0.083657876
174	0xbae9108d	-0.0017781422
175	0x3cd031fd	0.025414461
176	0x3dbea658	0.09309071
177	0xbdb57d5e	-0.088618025
178	0xbdc6ceac	-0.09707388
179	0xbd98a78a	-0.074538305
180	0xbd64afc7	-0.055831697
181	0x3cf1e28c	0.029526971
182	0xbd4ad11d	-0.049515832
183	0xbd975eaa	-0.073911026
184	0xbc86e7b8	-0.016467914
185	0xbc696769	-0.014245846
186	0xbd566128	-0.05233875
187	0x3d12e991	0.035867278
188	0xbc26b270	-0.010174379
189	0x3d461070	0.04835552
190	0xbe0e5aba	-0.13901797
191	0x3de5aa36	0.11214106
192	0xbdb34d67	-0.08754998
193	0x3d91f63b	0.07127043
194	0x3da6b663	0.08140256
195	0xbd743649	-0.059622083
196	0xbd6ba051	-0.057525937
197	0x3d8fb1c1	0.07016326
198	0xbdc342fa	-0.09534259
199	0x3c93701d	0.017997796
200	0x3d71c87a	0.05902908
201	0xbe260cf1	-0.16215874
202	0x3e0ce7f4	0.13760358
203	0xbe1de9de	-0.15421245
204	0xbcc1b998	-0.023648068
205	0xbdf8cfa6	-0.12148981
206	0xbbfb62c9	-0.007671688
207	0xbc978c10	-0.018499404
208	0xbd26a6f5	-0.040686566
209	0xbdaff06b	-0.08590778
210	0x3cfb9533	0.030710792
211	0xbcab5a25	-0.020917008
212	0xbd9a1e79	-0.075253434
213	0x3db0729f	0.08615612
214	0xbde5c0de	-0.11218427
215	0x3aeb25eb	0.0017940378
216	0xbd8f279a	-0.06989975
217	0x3dc8b481	0.098000534
218	0x3cba7b17	0.022763772
219	0xbdd32b58	-0.103110015
220	0xbd15a6a0	-0.03653586
221	0x3cc530d2	0.02407113
222	0xbcfa0124	-0.030518122
223	0xbd40e3f1	-0.047092382
224	0xbd6d759d	-0.057973493
225	0x3dbb07ca	0.09132345
226	0x3d702c84	0.058636203
227	0xbd6142a4	-0.054995194
228	0x3d45ec41	0.048321012
229	0x3e079446	0.13240156
230	0xbdd33525	-0.10312871
231	0x3c02da25	0.00798658
232	0x3dd76cf4	0.10518828
233	0xbda56bce	-0.08077203
234	0xbe19b286	-0.15009508
235	0x3c8d22b8	0.01722847
236	0x3dcba532	0.09943618
237	0xbd75ef53	-0.06004269
238	0xbd0425aa	-0.03226248
239	0xbd26e608	-0.04074672
240	0x3ce273c7	0.027643098
241	0xbd15ce0b	-0.03657345
242	0xbd802e23	-0.062588
243	0x3dbd7b8d	0.09252081
244	0x3cd660b5	0.02616916
245	0xbd83d359	-0.06436796
246	0xbd17f24e	-0.037096314
247	0x3cbd732b	0.023126205
248	0x3d8ba45c	0.068184584
249	0x3d92ee6a	0.0717438
250	0x3c7b5cc4	0.015341941
251	0x3e352d6c	0.17693108
252	0x3da0b0a1	0.07846189
253	0xbd178ef5	-0.03700157
254	0x3e1c42bc	0.15259832
255	0x3d3ffc4d	0.046871472

fc2.bias f4 [256]
0	0x3cdbd8a3	0.026836699
1	0xbcbf3ce8	-0.023344472
2	0x3d2b4f7e	0.041823857
3	0x3db07b67	0.08617287
4	0x3ae00a1a	0.0017092854
5	0xbcaa0169	-0.020752626
6	0xbd01fcdc	-0.031735286
7	0xbcf6d66e	-0.030131545
8	0xbcccb513	-0.024988687
9	0xbcc96367	-0.024583532
10	0x3d95faa1	0.07323194
11	0x3d1b91d5	0.037980873
12	0x3c392462	0.011300178
13	0xbbca924e	-0.0061819917
14	0x3c79caad	0.015246076
15	0xbd3b6b93	-0.045756888
16	0xbd04055e	-0.03223168
17	0xbd058706	-0.03259947
18	0x3cf08791	0.029361518
19	0xbc65ce54	-0.014026243
20	0xbcaa91fc	-0.020821564
21	0x3b6b51ee	0.0035906988
22	0x3d1495f3	0.036275815
23	0xbd270350	-0.040774643
24	0x3d2ba9ec	0.041910097
25	0x3b7b080d	0.003830436
26	0xbcb47091	-0.022026332
27	0xbc18e5e7	-0.009332157
28	0xbc146a3e	-0.009058533
29	0x3c4c00c0	0.012451351
30	0x3cb66d51	0.022268923
31	0xbcfd63fe	-0.030931469
32	0x3c441264	0.011967275
33	0x3be3ed15	0.0069557526
34	0x3bef336b	0.0072998307
35	0xbd7b92c4	-0.061419263
36	0xbbeade4c	-0.007167613
37	0xbd803cc5	-0.06261591
38	0x3ceca013	0.028884923
39	0x3c868654	0.016421475
40	0xbc7c67ac	-0.015405577
41	0x3ca1a835	0.019733528
42	0x3d81c886	0.06337075
43	0x3c309f24	0.01078013
44	0xbd4949be	-0.04914259
45	0x3d802345	0.06256727
46	0xbd3151cc	-0.0432909
47	0xbceb4961	-0.028721513
48	0xbd44095e	-0.047860496
49	0xbd201ecb	-0.039091866
50	0xbc745ff4	-0.014915455
51	0xbcbb35df	-0.022852836
52	0xbd95ec49	-0.073204584
53	0x3ca4ac9a	0.020101834
54	0xbd103410	-0.0352059
55	0xbd01f629	-0.031728897
56	0xbd10bc6c	-0.035335943
57	0x3d1712cd	0.036883164
58	0xbdaa65a9	-0.083201714
59	0x3c866478	0.01640533
60	0x3d0920ba	0.033478476
61	0x3cae116b	0.02124854
62	0x3d1d9fed	0.038482595
63	0xbcae99cf	-0.021313576
64	0x3c861374	0.016366698
65	0xbd127c72	-0.03576321
66	0xbc3d23f9	-0.011544221
67	0xbc706d2d	-0.014674467
68	0x3c817300	0.015801907
69	0xbd568961	-0.05237711
70	0xbce34dd6	-0.027747076
71	0x3d2d610e	0.042328887
72	0xbb014de6	-0.001973027
73	0x3d2cae8d	0.042158652
74	0xbd2fde7c	-0.042936787
75	0x3d3487cf	0.04407483
76	0x3d21377a	0.039359547
77	0x3cb006e2	0.021487657
78	0x3cb9c6e8	0.022677854
79	0x3adecc3b	0.0016998121
80	0xbbe82885	-0.0070849084
81	0x3cc7e941	0.024403216
82	0xbc41fc9d	-0.011840013
83	0xbcf21288	-0.029549852
84	0x3d0355e7	0.032064345
85	0x3c83fd49	0.016111987
86	0xbd915268	-0.07095796
87	0xbd646342	-0.055758722
88	0xbd54ac25	-0.051921982
89	0xbc984a55	-0.018590132
90	0xbd873986	-0.066027686
91	0x3c8d8a54	0.017277874
92	0x3d84de3a	0.06487699
93	0x3cff5d3d	0.03117239
94	0xbc9b8953	-0.01898638
95	0xbb7c25d8	-0.0038474705
96	0xbcb6a770	-0.022296637
97	0xbd5bd93c	-0.053673968
98	0x3d0862b9	0.033297274
99	0xbd429a10	-0.047510207
100	0xbc92e2d9	-0.017930435
101	0xbbece423	-0.0072293445
102	0xbd188ac1	-0.0372417
103	0x3d85bc77	0.065300874
104	0x3d262ad7	0.0405682
105	0x3dcd1018	0.10012835
106	0x3d426a02	0.04746438
107	0xbc459f93	-0.012061971
108	0xbd0f4a5f	-0.034983035
109	0xbc7e424a	-0.015518734
110	0x3c424af8	0.011858694
111	0x3d12b198	0.035813898
112	0xbd075bdb	-0.033046585
113	0xbadbefc0	-0.0016779825
114	0x3c6aca52	0.0143304635
115	0x3c2c149a	0.010502959
116	0xbbc93d98	-0.0061413758
117	0xba25bdec	-0.0006322551
118	0x3beb62f5	0.0071834275
119	0x3bcb4510	0.0062033013
120	0xbd0394e7	-0.032124426
121	0xbc8b6427	-0.01701553
122	0x3c446849	0.011987754
123	0xbd328611	-0.043584887
124	0x3ce4a823	0.027912205
125	0xbcdfcac6	-0.02731837
126	0x3dbc2b03	0.09187891
127	0xbcd2b146	-0.025719296
128	0x3c1dbef9	0.009628051
129	0x3d9e9bb2	0.0774454
130	0xbdc208c5	-0.09474329
131	0x3d07b733	0.033133697
132	0xbc5da032	-0.013526963
133	0xbcf547c1	-0.029941441
134	0x3cfaf2e6	0.030633401
135	0x3cb5cad3	0.02219144
136	0x3cef8fb2	0.029243324
137	0x3c1269c5	0.00893635
138	0x3d4bcf45	0.049758215
139	0xbd426cd5	-0.04746707
140	0x3cf44c63	0.02982158
141	0x3d429964	0.047509566
142	0x3ceaa29b	0.02864199
143	0xbd440ed0	-0.04786569
144	0x3cd8efe6	0.02648158
145	0x3c616988	0.013758071
146	0xbba37f26	-0.0049895225
147	0x3d222173	0.03958268
148	0xbd0f0812	-0.034919806
149	0x3cf36549	0.029711382
150	0x3cc54217	0.024079366
151	0x3d0d59f9	0.034509633
152	0x3c50d3ae	0.012745781
153	0x3d959b37	0.073049955
154	0x3d1f596a	0.03890363
155	0x3ca3984a	0.019970078
156	0x3cd5ebf4	0.026113488
157	0x3c3ebdac	0.011641901
158	0x3ca4b1dd	0.020104343
159	0xbd278c38	-0.040905207
160	0x3b6bf8bc	0.0036006412
161	0xbcfd7d62	-0.030943576
162	0xbc94455a	-0.018099476
163	0xbca6fe02	-0.020384792
164	0x3d7007e0	0.05860126
165	0xbb176b4b	-0.0023104723
166	0xbb2905f1	-0.0025790895
167	0x3a26f4d9	0.00063688826
168	0xbc830de2	-0.01599783
169	0x3d06c842	0.032905824
170	0x3cb1f2e8	0.021722272
171	0x3b57060a	0.0032809996
172	0xbd2fa2eb	-0.04287998
173	0x3b5c0ad9	0.0033575802
174	0x3d073562	0.033009894
175	0xbd757ca8	-0.059933335
176	0x3ca0c4e8	0.019625142
177	0xbd462c82	-0.04838229
178	0xbce41eb4	-0.027846672
179	0x3d12145d	0.03566395
180	0x3ca9b8dd	0.020718032
181	0xbd3d9323	-0.0462829
182	0x3d8cb37a	0.0687017
183	0x3b90ac65	0.0044150823
184	0xbcde208f	-0.027115135
185	0x3cc56bab	0.024099192
186	0x3b815736	0.003947164
187	0xbd023122	-0.031785138
188	0x3c925ca3	0.017866438
189	0xbdb23863	-0.08702161
190	0xbd5b53f6	-0.05354687
191	0x3cfaac91	0.030599864
192	0x3d2509bd	0.04029249
193	0xbcd5bcc2	-0.026090983
194	0xbcc45d24	-0.023970194
195	0x3d0ca0f3	0.03433318
196	0xba9cd23a	-0.0011964508
197	0x3b998a1e	0.0046856543
198	0x3d46cc8f	0.048534926
199	0xbc96ba12	-0.018399272
200	0x3c27cbdf	0.010241478
201	0xbd01c324	-0.03168024
202	0x3c51fbb2	0.0128163565
203	0x3c72fd9c	0.014830973
204	0xbc6b2c37	-0.014353803
205	0x3ca5baf7	0.020230753
206	0x3dbdadf3	0.09261694
207	0x3d26c8e9	0.040718947
208	0x3cdf865e	0.027285751
209	0x39f3a033	0.0004646793
210	0x3cd82a41	0.026387336
211	0xbd8a7e16	-0.0676233
212	0xbc549277	-0.012974373
213	0x3cb350f3	0.021889186
214	0x3d5def27	0.05418315
215	0xbdaa7097	-0.08322256
216	0x3b93a21c	0.004505409
217	0xbc571b29	-0.013129034
218	0x3c6404be	0.013917146
219	0x3ce454ef	0.02787253
220	0x3a4049a8	0.00073351944
221	0x3c337c81	0.010954977
222	0x3bbb57d5	0.0057172575
223	0xbd3e83a6	-0.04651227
224	0x3ce1ad13	0.027548349
225	0x3c8cfe5c	0.017211132
226	0xbd6262d9	-0.05527005
227	0xbb247813	-0.0025095984
228	0xbcdb63d3	-0.026780998
229	0x3ced3676	0.028956633
230	0xbdafa205	-0.08575825
231	0xbd3f49ed	-0.04670136
232	0xbd706f77	-0.05870005
233	0xbca957ab	-0.020671686
234	0xbca873f4	-0.020563103
235	0xbd24b186	-0.040208362
236	0x3a5c40d2	0.0008401993
237	0xbcd1ac42	-0.025594834
238	0x3ce8fa00	0.028439522
239	0x3cf4b574	0.02987168
240	0x3d0cf74d	0.034415532
241	0x3bdfdb07	0.00683153
242	0xbd0c8270	-0.034304082
243	0x3d0147c7	0.031562593
244	0x3d4f85db	0.050664764
245	0x3cfb72aa	0.030694325
246	0xbbf17b4c	-0.0073694345
247	0x3cb6077f	0.022220371
248	0x3d59afc6	0.053146146
249	0xbdaa1fa3	-0.083068155
250	0xbc20b508	-0.009808786
251	0x3cae276e	0.021259036
252	0xbca52e32	-0.02016363
253	0x3db4ed0e	0.08834277
254	0xbd338cb4	-0.043835357
255	0xbc8139bb	-0.015774598

fc3.weight f4 [2, 256]
0	0xbe8338f7	-0.25629398
1	0xbd7afad5	-0.06127437
2	0x3dd95d5a	0.106135085
3	0xbd2c97f9	-0.04213712
4	0x3e013599	0.12618102
5	0x3dc87e57	0.097897224
6	0xbdcd0f35	-0.10012666
7	0x3dea2da0	0.114344835
8	0xbdc79d62	-0.09746815
9	0xbdfa1f2d	-0.122129776
10	0xbcc6871c	-0.024234347
11	0x3e56b00e	0.20965597
12	0x3d5ad520	0.053425908
13	0x3beb6687	0.007183853
14	0x3dbe7f22	0.093015924
15	0xbe77552c	-0.24153584
16	0x3e452589	0.192526
17	0xbd4d420a	-0.050111808
18	0xbe053b21	-0.13010837
19	0xbd5d60ea	-0.054047503
20	0x3e54026d	0.2070405
21	0xbd460690	-0.048346102
22	0x3e97f2cb	0.29677424
23	0x3e8e530f	0.27797744
24	0x3e35a71d	0.1773953
25	0xbde53758	-0.111921966
26	0x3de3f2fb	0.11130329
27	0xbda126ff	-0.07868766
28	0xbd2f41b6	-0.042787276
29	0x3cc4bc56	0.024015587
30	0x3ea8a5f9	0.32939127
31	0x3ac2699d	0.0014832501
32	0xbcdd1e9b	-0.026992133
33	0x3de1ab25	0.11018971
34	0xbda50abb	-0.08058687
35	0xbdcc38d2	-0.09971775
36	0xbbda1616	-0.006655465
37	0x3e8c2ef0	0.2737956
38	0xbd6a865d	-0.057257045
39	0x3bd2b262	0.0064299563
40	0x3dbbc23e	0.09167908
41	0x3ddaab17	0.10677164
42	0x3e298d65	0.16557844
43	0xbdc13f27	-0.094358735
44	0x3e8cb664	0.27482903
45	0x3c06dce9	0.00823138
46	0xbdfd59f3	-0.12370672
47	0xbc820970	-0.01587364
48	0x3cc1645e	0.02360743
49	0x3d5a054f	0.05322772
50	0x3e22b806	0.15890512
51	0xbe38716c	-0.18012017
52	0x3d8b1aea	0.06792243
53	0xbdbbd8bf	-0.091722004
54	0x3afc7a13	0.0019262455
55	0x3e4f097e	0.20218465
56	0xbd6a06ef	-0.05713552
57	0x3cb36246	0.021897446
58	0x3db64463	0.088997625
59	0xbb24e9ee	-0.0025163847
60	0xbcbef673	-0.023310876
61	0x3d9c04ae	0.0761808
62	0x3e7d0044	0.24707133
63	0x3df3b387	0.118994765
64	0xbe082fb4	-0.13299447
65	0x3e291f3b	0.1651582
66	0xbdf60410	-0.120124936
67	0xbcb072bb	-0.021539083
68	0xbe71d879	-0.23617734
69	0xbd370489	-0.04468206
70	0xbd7959bb	-0.06087659
71	0xbd274742	-0.04083944
72	0x3e0630d7	0.13104568
73	0xbda93f0e	-0.0826398
74	0xbc8c4586	-0.017122995
75	0xbd0b714b	-0.03404359
76	0xbd37994e	-0.044823937
77	0xbd6d8d91	-0.057996336
78	0x3e0b83a4	0.13624436
79	0x3dc76162	0.09735371
80	0x3daa5296	0.08316533
81	0x3ba16705	0.004925611
82	0x3ec79c8b	0.3898662
83	0x3c03fc59	0.00805577
84	0xbde4bb6e	-0.11168562
85	0x3e06374e	0.13107035
86	0xbdd18f1e	-0.102323756
87	0xbdb6f377	-0.08933156
88	0x3d810d17	0.06301325
89	0x3dd075a1	0.10178686
90	0xbe69194d	-0.22763558
91	0xbd68e8a2	-0.05686248
92	0xbbdc330d	-0.006719953
93	0x3d8ba979	0.06819434
94	0x3e29c3e8	0.16578639
95	0xbda4ebb2	-0.08052768
96	0xbe66db0d	-0.22544499
97	0xbc9706db	-0.018435886
98	0xbd6090a5	-0.054825444
99	0x3e201623	0.15633444
100	0x3d025263	0.03181685
101	0xbc0c8708	-0.008577116
102	0xbdd6de57	-0.10491627
103	0xbcf3e5dd	-0.029772693
104	0xbd763104	-0.06010534
105	0xbd5018a5	-0.050804753
106	0x3d7e9051	0.06214935
107	0xbdcddb1a	-0.10051556
108	0xbe3e49be	-0.18582818
109	0x3e95fe6b	0.29295668
110	0x3cd71972	0.02625725
111	0x3c0aac91	0.008463995
112	0xbd849f06	-0.06475644
113	0xbdaf15ff	-0.08549117
114	0xbe16a09e	-0.14709708
115	0x3e86e370	0.26345396
116	0xbc6d36b5	-0.014478375
117	0x3c9ca6fd	0.019122595
118	0x3d8bdb57	0.06828945
119	0xbd369763	-0.044577967
120	0x3e0b9a98	0.13633192
121	0x3e55bea8	0.20873511
122	0xbd3bb4a1	-0.045826558
123	0x3dcccbd2	0.09999813
124	0xbd8ab4e7	-0.06772786
125	0x3c03ec22	0.008051904
126	0x3b020e65	0.0019845006
127	0x3e022ddd	0.12712808
128	0x3d291d74	0.041287854
129	0xbd232250	-0.039827645
130	0x3e3d7024	0.1849981
131	0x3db18c9c	0.08669397
132	0x3b1ffc5b	0.002441189
133	0xbe76aa36	-0.24088368
134	0x3e16b7ad	0.14718504
135	0x3d94e4c3	0.07270195
136	0xbbe73afe	-0.007056593
137	0xbd7ef934	-0.062249377
138	0xbd0274fc	-0.031849846
139	0x3dd37c3e	0.10326432
140	0x3df005ac	0.11719832
141	0xbdb3c2da	-0.08777399
142	0x3e13a506	0.1441842
143	0x3e532831	0.206208
144	0x3daf278d	0.085524656
145	0x3e4898cb	0.19589536
146	0x3df29ef4	0.11846724
147	0xbd8ff08a	-0.07028301
148	0xbd743104	-0.059617057
149	0xbd8d4572	-0.06898011
150	0x3db2df40	0.08733988
151	0x3de6f509	0.112772055
152	0x3db61ce5	0.0889223
153	0xbca97c9e	-0.020689305
154	0xbe12720a	-0.14301315
155	0x3ddab845	0.10679678
156	0xbbda4e02	-0.0066621313
157	0xbdb41022	-0.087921396
158	0xbe09c080	-0.13452339
159	0xbe50f74c	-0.20406836
160	0xbe624a23	-0.22098593
161	0xbda34e92	-0.079739705
162	0xbb0e55bd	-0.0021718584
163	0xbd0d9551	-0.034566227
164	0xbc872406	-0.01649667
165	0xbdd17a90	-0.10228455
166	0x3e6cfe15	0.231438
167	0x3e64ea44	0.2235499
168	0x3d8a116e	0.06741606
169	0xbcf563df	-0.029954849
170	0x3b6a3fab	0.0035743515
171	0x3b97d6e9	0.0046337736
172	0xbe1bb065	-0.15204008
173	0xbdacfa39	-0.08446164
174	0x3d1277bb	0.035758715
175	0xbda65e97	-0.0812351
176	0xbda810ee	-0.08206354
177	0x3dc5eeae	0.09664665
178	0x3d4eef5c	0.05052124
179	0xbcd38361	-0.025819482
180	0x3e08e994	0.13370353
181	0xbd3c4246	-0.04596164
182	0xbd7d871d	-0.061896432
183	0x3e0619ef	0.1309583
184	0x3e20e17e	0.15711018
185	0xbd4a0701	-0.049323086
186	0xbcc7255d	-0.024309808
187	0x3e1bcc8d	0.15214749
188	0x3e172992	0.14761952
189	0x3e4d731a	0.20063439
190	0xbd9311a2	-0.071810976
191	0x3e04f11d	0.12982602
192	0xbdbee226	-0.09320478
193	0xbd39969f	-0.04530966
194	0xbd642efd	-0.055708874
195	0xbd41a687	-0.047277953
196	0xbce9b31d	-0.02852779
197	0xbe2a0a05	-0.16605385
198	0xbd586c4a	-0.052837647
199	0xbe27a70a	-0.16372314
200	0x3e1091e8	0.14118159
201	0xbe8b844a	-0.27249366
202	0x3cc1bea4	0.023650475
203	0x3e0d6b6c	0.1381051
204	0x3e5a40cb	0.21313779
205	0x3e36ddba	0.1785802
206	0x3ad6f87d	0.001640096
207	0x3ddb7d0e	0.10717212
208	0xbdde3c61	-0.1085136
209	0x3c4f0509	0.012635478
210	0x3e42d4ad	0.19026442
211	0x3d458117	0.048218813
212	0xbe1085df	-0.14113568
213	0x3de04607	0.10950857
214	0x3e208470	0.15675521
215	0x3e0ff487	0.14058124
216	0x3ba34581	0.0049826507
217	0x3e39f8a2	0.18161252
218	0xbe141ee6	-0.14464912
219	0xbd847a8b	-0.06468686
220	0x3df0560a	0.11735161
221	0xbe25e260	-0.16199636
222	0xbd981297	-0.07425421
223	0xbd988c35	-0.07448617
224	0xbd4f3858	-0.050590843
225	0x3e338ba8	0.17533743
226	0xbd83b718	-0.06431407
227	0x3daf3036	0.085541174
228	0xbe362a45	-0.17789562
229	0x3dba9bbd	0.09111736
230	0xbdd3ac03	-0.10335543
231	0xbdbe741a	-0.09299488
232	0xbdd19e40	-0.10235262
233	0x3e158b86	0.14604005
234	0xbcf20482	-0.029543165
235	0xbddd3e6a	-0.1080292
236	0x3dbfb7e2	0.09361245
237	0x3e570f4a	0.21001926
238	0x3d909837	0.07060283
239	0x3dcd9972	0.10039033
240	0x3d70eb0c	0.05881791
241	0xbd692df3	-0.056928586
242	0xbd861cab	-0.06548437
243	0xbccf466a	-0.02530213
244	0x3dd0bf8f	0.10192787
245	0x3d8e7b45	0.069571055
246	0x3dd70763	0.10499456
247	0xbcc70258	-0.02429311
248	0xbcf35d2a	-0.02970751
249	0x3e4edf31	0.20202328
250	0x3de8fa41	0.11375857
251	0x3cff4191	0.031159194
252	0xbd8b0a3f	-0.06789064
253	0xbcd6565c	-0.026164226
254	0xbc842c21	-0.016134324
255	0xbe5cf41d	-0.21577497

fc3.bias f4 [2]
0	0xbc92fca3	-0.017942732
1	0x3cc04f74	0.023475386
