checkpoint_critic_tennis.pth (torch_old, 584988 bytes, 7 tensors)

fcs1.weight f4 [512, 24]
0.019972159 0.061641373 0.008666771 -0.0003327302 -0.022813147 0.050587896 -0.0040559066 -0.015679257
0.04041344 0.067238934 -0.024971746 -0.016602932 -0.05321764 -0.03356475 0.01686491 0.017360901
0.06570386 0.08827597 0.018142775 -0.05295973 -0.103502505 -0.1431613 -0.03006629 -0.04022174
0.048175167 0.010192674 0.02643869 0.061383042 -0.019313343 -0.108589746 -0.0029738138 0.025715938
0.092383854 0.047269896 0.010953166 -0.0074590654 -0.0068920753 -0.04687037 0.00017491203 -0.03027175
0.120906934 0.049210954 0.00019829499 0.038628135 0.023477446 0.040919274 0.034423713 -0.0031238364
-0.0025318281 -0.04610888 -0.026680356 -0.0010750595 0.06304817 -0.03818849 -0.0070077246 -0.0025701001
0.05897988 -0.004676771 0.009032676 0.011341709 0.012735923 -0.07747171 -0.011290969 -0.022278989
0.053946428 0.0305009 0.0134238675 0.011628559 -0.06294708 -0.05423851 -0.03865925 0.036053173
-0.042154707 0.11072996 0.0018659295 -0.008561746 -0.022712892 0.024490155 0.0034201094 -0.0015039634
0.01958661 0.09487153 0.01951189 0.013927219 -0.034692854 -0.021517986 -0.010253961 -0.04575888
-0.05690842 0.0980905 -0.019029114 -0.011832367 0.050215185 -0.1653454 0.025202552 -0.05444077
0.016558731 -0.021743864 -0.0005509515 0.021062575 -0.026649054 0.020779477 0.007826507 -0.042001158
0.10942475 -0.04136207 -0.001086372 0.008357879 0.06277869 -0.015813915 0.016983844 -0.027917909
0.07181886 -0.0679005 -0.018212905 0.06813634 0.09136413 -0.038020574 0.035965394 0.021498974
-0.05049732 -0.01925377 -0.020144895 -0.00040964255 0.08089684 -0.12110998 0.020815497 -0.017413916
-0.023991816 -0.00799045 0.0008792831 0.013166797 0.041719563 -0.25319508 0.0034894226 0.003863419
-0.054035697 0.017216912 0.0116096325 -0.00052034186 0.040792406 -0.100632176 -0.014084357 -0.03185111
0.006192131 -0.022808429 -0.0036557254 -0.020860462 0.061908014 -0.059980612 0.0051842234 0.012209376
-0.024708332 0.010909883 0.0102376565 -0.006938021 0.016900904 0.01437678 -0.043388087 -0.012817464
0.030766321 -0.02719839 -0.028548282 -0.018707171 -0.14015783 0.10409872 0.00583132 0.0116083035
0.03375839 -0.059174582 -0.024405727 -0.050683837 0.013492414 -0.02157774 -0.006082804 -0.051639277
0.023290372 -0.03360244 -0.019218594 -0.062894486 0.037842162 -0.013395344 0.009205667 0.005033977
0.05269576 0.0066650375 0.008247716 0.023797657 0.060738683 -0.09770657 -0.043053847 0.014823633
-0.02634436 0.02580283 -0.006537554 0.0006948007 0.008969494 -0.2058957 0.008917028 -0.002150529
0.012097443 0.0006085307 0.03203789 0.0074326005 0.043906443 -0.04578414 -0.036008555 -0.003097859
0.00084852136 0.011773808 0.0140421055 0.02240318 0.1621165 0.11912919 -0.018559461 0.01734054
-0.019250657 0.11569891 0.02062041 0.017554905 0.04617465 -0.009830006 -0.01917958 -0.02371384
-0.020908605 0.065650865 0.031973563 0.039979562 0.017141987 0.01397173 -0.03705776 -0.031103214
0.014882432 0.13125268 -0.027579846 -0.048307292 -0.03859 0.18015498 0.019584427 -0.028366629
-0.031083193 -0.01497186 -0.018033488 0.027080687 0.09044519 0.024618119 0.010162731 0.022712473
-0.028385388 0.042331975 -0.013473508 0.0073814117 0.034280725 0.024510805 -0.0032600262 0.034328558
00000000: a79c a33c aa7b 7c3d 13ff 0d3c 4b72 aeb9
00000010: a3e2 babc 4135 4f3d 69e7 84bb c971 80bc
00000020: 9088 253d 91b4 893d 8c91 ccbc df02 88bc
00000030: bdfa 59bd 317b 09bd 4828 8a3c 7338 8e3c
00000040: bf8f 863d 08ca b43d 28a0 943c 4dec 58bd
00000050: 1ff9 d3bd e098 12be 954d f6bc 8dbf 24bd
00000060: 5353 453d 2cff 263c f495 d83c c96c 7b3d
00000070: 0437 9ebc 4d64 debd 51e4 42bb 3baa d23c
00000080: bf33 bd3d 149e 413d e874 333c 2d6b f4bb
00000090: ebd6 e1bb 25fb 3fbd 9768 3739 76fc f7bc
000000a0: 0e9e f73d 6d91 493d 68ed 4f39 8938 1e3d
000000b0: c653 c03c f89a 273d e1ff 0c3d 47b9 4cbb
000000c0: 07ed 25bb aadc 3cbd c390 dabc 03e9 8cba
000000d0: 661f 813d 896b 1cbd 0ea1 e5bb 206f 28bb
000000e0: e394 713d 993f 99bb cafd 133c 93d2 393c
000000f0: 55aa 503c 7da9 9ebd c2fd 38bc 6d82 b6bc
00000100: eef6 5c3d 06dd f93c c8ef 5b3c b685 3e3c
00000110: 66ea 80bd 3329 5ebd 2959 1ebd 7eac 133d
00000120: 6aaa 2cbd 64c6 e23d 3492 f43a 9146 0cbc
00000130: 6310 babc 949f c83c ea23 603b a320 c5ba
00000140: 1974 a03c 014c c23d 66d7 9f3c fe2e 643c
00000150: 181a 0ebd 7d46 b0bc 3b00 28bc aa6d 3bbd
00000160: ce18 69bd ace3 c83d f2e2 9bbc 8bdc 41bc
00000170: 70ae 4d3d 4e50 29be 9575 ce3c 49fd 5ebd
00000180: 2da6 873c 3020 b2bc bb6d 10ba 6c8b ac3c
00000190: 1e4f dabc b939 aa3c c03a 003c 6809 2cbd
000001a0: 151a e03d 466b 29bd 9864 8eba 7cef 083c
000001b0: 1d92 803d 2f8c 81bc b421 8b3c 19b4 e4bc
000001c0: c415 933d 6b0f 8bbd 3b33 95bc 118b 8b3d
000001d0: 1e1d bb3d 76bb 1bbd 7350 133d 9e1e b03c
000001e0: 47d6 4ebd 15ba 9dbc e806 a5bc 4bc5 d6b9
000001f0: 3ead a53d 8208 f8bd 4385 aa3c a1a7 8ebc
00000200: 7c8a c4bc 60ea 02bc b17f 663a 8db9 573c
00000210: 22e2 2a3d c9a2 81be ccae 643b 6a31 7d3b
00000220: 8954 5dbd 7b0a 8d3c 5436 3e3c 8d67 08ba
00000230: f015 273d 3e18 cebd 13c2 66bc 4f76 02bd
00000240: 5ce7 ca3b bed8 babc e594 6fbb 8fe3 aabc
00000250: 4293 7d3d 3bae 75bd 6be0 a93b d609 483c
00000260: 2169 cabc 5ebf 323c d8bb 273c 5758 e3bb
00000270: c473 8a3c 968c 6b3c b5b7 31bd 5700 52bc
00000280: a709 fc3c 28cf debc 16de e9bc c83f 99bc
00000290: 8985 0fbe b631 d53d a814 bf3b c130 3e3c
000002a0: 3d46 0a3d 0c61 72bd 85ee c7bc db99 4fbd
000002b0: 490f 5d3c cdc3 b0bc 4252 c7bb b583 53bd
000002c0: 73cb be3c b6a2 09bd 5070 9dbc d3ce 80bd
000002d0: 6200 1b3d 2578 5bbc 5ed3 163c 0ff4 a43b
000002e0: 82d7 573d 6366 da3b 6e21 073c 4ef3 c23c
000002f0: 20c9 783d 621a c8bd 3b59 30bd d3de 723c
00000300: 21d0 d7bc 7560 d33c fa38 d6bb 4923 363a
00000310: c9f4 123c 53d6 52be ba18 123c e4ef 0cbb
00000320: 5b34 463c ce85 1f3a 2a3a 033d 2c8d f33b
00000330: 3ed7 333d 2688 3bbd b57d 13bd 7305 4bbb
00000340: 4e6f 5e3a eee6 403c dc10 663c e086 b73c
00000350: de01 263e 01fa f33d 030a 98bc c00d 8e3c
00000360: 8eb3 9dbc 8df3 ec3d 22ec a83c 4ecf 8f3c
00000370: a121 3d3d 090e 21bc 7f1e 9dbc 8743 c2bc
00000380: 8648 abbc f673 863d b6f6 023d 9cc1 233d
00000390: 5a6d 8c3c afe9 643c e1c9 17bd 2bcc febc
000003a0: 72d5 733c 1a67 063e 21ef e1bc dedd 45bd
000003b0: 8c10 1ebd 8c7a 383e 856f a03c 2261 e8bc
000003c0: 2ea2 febc 884c 75bc f7ba 93bc 51d8 dd3c
000003d0: 543b b93d f0ab c93c 9581 263c 820f ba3c
000003e0: 7988 e8bc 4b64 2d3d fdbf 5cbc c5df f13b
000003f0: f269 0c3d e2ca c83c 2aa6 55bb 1a9c 0c3d

fcs1.bias f4 [512]
0.1534394 0.10824084 0.02188476 0.21297325 -0.2056724 -0.033245593 -0.051582713 -0.17490011
-0.14076343 -0.052203815 -0.0252308 -0.024707325 -0.15989009 -0.0091465395 -0.20648326 -0.06565936
-0.19295809 0.13065742 -0.10092002 0.09232618 0.0037392268 -0.05501033 0.30646425 0.040847335
0.13476078 0.19008766 -0.02887191 0.20261548 0.22387837 -0.10036693 -0.22647098 0.015032299
0.008354582 0.063134566 -0.06404461 0.2140722 0.032655172 0.17317031 -0.022727096 0.09398321
-0.23497418 -0.26326886 0.30498862 0.04996296 0.1435163 -0.030969942 -0.02935849 0.046407554
0.16743846 -0.12532711 0.043459356 -0.2835172 -0.10946997 -0.03831135 0.00092804345 -0.17794225
0.14673711 0.15388612 0.17395586 0.051694963 -0.0800247 0.13598773 -0.113381624 0.11175202
-0.21813871 0.010770882 0.021879824 -0.16170286 -0.12779815 0.31497616 0.057868876 0.10447088
-0.20679982 0.23002869 -0.15919021 -0.24518192 -0.09730661 0.17108575 0.055269152 0.048523426
0.041254077 -0.19828354 0.039896563 0.12774757 0.1896393 0.13148767 -0.17412402 0.036937207
0.10647075 0.010368115 -0.053235486 0.09516358 0.041860618 0.2731161 -0.12688097 -0.29379174
0.03702377 0.15721822 -0.005372824 0.18862817 0.071041755 -0.08654118 -0.09743636 0.13733204
-0.17857066 -0.0633569 -0.12596323 0.035297286 0.11181497 0.11648951 -0.15337424 -0.17408197
-0.14523533 0.20842515 0.25660458 0.07199747 0.21997903 0.06271368 -0.014582562 -0.16118161
0.037495058 -0.011098269 -0.06640281 -0.06981408 -0.1461426 0.033028025 -0.2291274 0.13417692
0.100069165 -0.12237688 -0.03012745 0.22804397 0.21392126 0.116098195 -0.1170459 0.059161756
0.23277038 -0.05842184 0.052978065 -0.014533674 -0.06585458 0.22896023 0.027172709 -0.21454342
-0.05751855 0.13233513 -0.07868668 -0.23719425 0.09712726 -0.19545597 -0.18737252 -0.14337449
-0.21769509 0.06335079 0.052069828 -0.09598874 0.15665004 -0.114899635 0.065423995 -0.22335973
0.10126594 -0.10018767 -0.03696017 -0.199424 -0.08975257 0.06936325 0.17991817 0.026092501
-0.050618354 0.13946201 0.059424575 0.13096252 -0.052924406 0.017044254 -0.1839087 -0.23996392
0.020790298 -0.2430952 0.027295426 0.22031556 0.04356857 -0.0030214447 0.16480479 0.1838088
0.24291775 0.14783731 -0.15227295 -0.13106355 -0.17581454 -0.036372505 -0.011818814 -0.13955122
0.007967677 0.23741376 0.07490504 0.16197728 0.08950279 0.016914746 -0.09474248 0.23383704
-0.11653816 -0.045157094 -0.30176586 -0.21711974 -0.10847217 0.15603532 0.035378247 -0.15621793
0.008357918 -0.023569586 0.0057710614 0.24823958 0.2023996 0.06825914 -0.0018541767 -0.018810164
-0.25950766 -0.03628382 -0.067248434 -0.002511283 0.3095967 -0.05472438 0.14320874 -0.2685114
0.15620121 -0.022325668 -0.086802445 -0.11992017 -0.064308174 0.050856017 -0.22908072 0.13451818
0.28067875 0.2033045 -0.06983315 0.16733055 0.2038846 0.14675169 -0.22195545 -0.26653093
-0.016038379 -0.15731347 0.101133846 0.10612168 0.00979778 -0.20421313 0.13717094 -0.04304949
0.17347254 -0.27687502 -0.13953307 -0.26411486 0.23825163 0.21848018 -0.13120136 0.070393145
00000000: 381f 1d3e 60ad dd3d ab47 b33c a915 5a3e
00000010: c99b 52be 882c 08bd 6548 53bd 0419 33be
00000020: 4a24 10be abd3 55bd d3b0 cebc 0467 cabc
00000030: 3aba 23be 5edb 15bc 5970 53be 6a78 86bd
00000040: ce96 45be 0fcb 053e 28af cebd 8215 bd3d
00000050: d10d 753b 8352 61bd e2e8 9c3e 894f 273d
00000060: bbfe 093e 57a6 423e c984 ecbc 6f7a 4f3e
00000070: 5f40 653e 2d8d cdbd 02e8 67be 084a 763c
00000080: a8e1 083c b24c 813d d229 83bd be35 5b3e
00000090: 6ec1 053d 8f53 313e 2d2e babc 457a c03d
000000a0: 129d 70be 2dcb 86be 7827 9c3e f6a5 4c3d
000000b0: f0f5 123e adb4 fdbc 3781 f0bc d915 3e3d
000000c0: fd74 2b3e c055 00be 7002 323d 2b29 91be
000000d0: cb31 e0bd 5dec 1cbd f147 733a 7e36 36be
000000e0: 4142 163e 5394 1d3e 7c21 323e 19be 533d
000000f0: fde3 a3bd 5e40 0b3e a034 e8bd 3ede e43d
00000100: c15f 5fbe 5a78 303c 513d b33c 6f95 25be
00000110: 85dd 02be 8e44 a13e ea07 6d3d d4f4 d53d
00000120: 55c3 53be a48c 6b3e c202 23be f810 7bbe
00000130: b048 c7bd 1a31 2f3e e861 623d 80c0 463d
00000140: 09fa 283d d70a 4bbe 946a 233d 42d0 023e
00000150: ce30 423e b4a4 063e 914d 32be 784b 173d
00000160: 560d da3d 07df 293c 740d 5abd 1fe5 c23d
00000170: 0a76 2b3d e0d5 8b3e 16ed 01be df6b 96be
00000180: 3da6 173d d0fd 203e 840e b0bb be27 413e
00000190: 577e 913d 813c b1bd b78c c7bd c5a0 0c3e
000001a0: 3adb 36be 43c1 81bd 81fc 00be e393 103d
000001b0: 3fff e43d 0d92 ee3d 230e 1dbe 8b42 32be
000001c0: 92b8 14be 676d 553e ad61 833e 6973 933d
000001d0: 2f42 613e 0870 803d b3eb 6ebc cb0c 25be
000001e0: 6b94 193d 84d5 35bc 32fe 87bd affa 8ebd
000001f0: 68a6 15be 6548 073d 60a0 6abe ad65 093e
00000200: 10f1 cc3d bba0 fabd d8cd f6bc 5c84 693e
00000210: 2d0e 5b3e e4c4 ed3d c3b5 efbd 9953 723d
00000220: 5c5b 6e3e bd4b 6fbd 87ff 583d a61e 6ebc
00000230: c4de 86bd 8d74 6a3e 4d99 de3c 45b1 5bbe
00000240: 9298 6bbd dc82 073e 7b26 a1bd 0de3 72be
00000250: a8ea c63d 9c25 48be 95de 3fbe c3d0 12be
00000260: 76eb 5ebe 0fbe 813d 2c47 553d bf95 c4bd
00000270: de68 203e 8050 ebbd 04fd 853d 6ab8 64be
00000280: 8464 cf3d 312f cdbd 8c63 17bd ce35 4cbe
00000290: 32d0 b7bd 520e 8e3d 783c 383e f1bf d53c
000002a0: 3155 4fbd 21cf 0e3e 2f67 733d 0a1b 063e
000002b0: 43c7 58bd 64a0 8b3c 9052 3cbe 1ab9 75be
000002c0: 6a50 aa3c f3ed 78be a89a df3c 679a 613e
000002d0: f574 323d 6e03 46bb 96c2 283e 6038 3c3e
000002e0: 6ebf 783e aa62 173e 71ed 1bbe 8635 06be
000002f0: ba08 34be 56fb 14bd b3a3 41bc 84e6 0ebe
00000300: dc8a 023c 981c 733e d067 993d 5fdd 253e
00000310: 3d4d b73d cb90 8a3c 5808 c2bd fa72 6f3e
00000320: 8fab eebd a5f6 38bd 0e81 9abe a354 5ebe
00000330: a826 debd b9c7 1f3e c8e8 103d 98f7 1fbe
00000340: a6ef 083c 0115 c1bc 2c1b bd3b 8432 7e3e
00000350: d741 4f3e 73cb 8b3d d907 f3ba c617 9abc
00000360: 30de 84be 589e 14bd 8cb9 89bd 5694 24bb
00000370: 7583 9e3e ac26 60bd 50a5 123e 547a 89be
00000380: 36f3 1f3e 52e4 b6bc 7bc5 b1bd b598 f5bd
00000390: 01b4 83bd 664e 503d 2394 6abe 22bf 093e
000003a0: 20b5 8f3e 0e2f 503e af04 8fbd b358 2b3e
000003b0: 20c7 503e 1346 163e 4a48 63be be76 88be
000003c0: eb62 83bc c816 21be 431f cf3d 5356 d93d
000003d0: de86 203c 3f1d 51be 8a76 0c3e a954 30bd
000003e0: c9a2 313e 90c2 8dbe c2e1 0ebe 103a 87be
000003f0: 3cf8 733e 45b9 5f3e a659 06be 482a 903d

ln1.weight f4 [512]
0.95329463 0.90854084 0.91213673 0.96343166 0.95195824 0.93965894 0.9606999 0.91449934
1.1514114 0.9397114 0.95922875 1.0234967 0.94564646 0.94691604 0.9882495 0.9736881
0.98252386 0.9070179 0.8829085 0.9059222 0.87526053 1.0067549 0.936333 0.8650966
0.9192253 1.0623126 0.8997548 1.2714472 0.9063553 0.92929626 1.021955 0.90508777
1.0576508 0.99540615 1.0150151 0.9767823 0.92280364 1.0178944 0.9484577 1.0146848
0.96221596 0.93689275 1.1355624 0.97447294 0.9063686 0.97656316 0.9076923 0.8996642
1.0752057 1.0114647 1.0944645 1.1161361 1.0425284 1.0320823 0.8871652 0.8912082
0.9604923 0.8991964 0.93100643 1.0070182 0.90454435 0.95082265 0.8707113 0.9246697
0.9197275 1.1131727 1.0041028 0.8834643 0.9382694 0.9977934 1.0495087 0.97838277
0.95805544 1.0369827 0.9440033 0.91399705 1.1175483 0.9545254 0.9099849 0.8511821
0.9205008 1.0485204 0.92345256 0.9933998 0.9598939 0.8602904 0.9832225 1.025847
0.9543913 0.98404795 0.9244999 1.0285851 0.9250227 0.92428464 0.90599346 0.95391876
0.91514975 1.0164791 0.8876202 0.93836004 1.0187193 0.9568258 0.94343084 0.97900754
0.9229549 1.0264485 1.1680506 0.92003447 0.9833991 1.0339345 1.0213202 0.9122763
0.9668715 1.0697567 0.950634 1.0373553 0.89134496 1.0899366 0.9427208 0.9242439
0.95101434 0.92549694 1.0622196 0.8951451 0.93058133 1.0538526 0.9792081 0.954466
0.9289208 0.94675225 0.8989754 1.0300119 0.91846347 0.87025845 0.9377039 0.9731879
0.943139 0.97237974 0.9124736 0.88840395 0.9884216 0.9204314 0.9095276 0.98460585
0.9603942 0.9764789 0.9112853 0.8791012 0.92136574 0.9901933 0.96560687 1.0902426
0.9235784 0.89867485 0.9425964 0.94698477 1.126823 1.160122 0.9501959 0.8772147
0.9563961 1.0049523 0.9184621 0.95646095 0.8747415 0.9832012 0.9585829 1.0193993
0.9563377 0.9770662 1.0049511 0.9519236 0.9395114 1.228886 0.9259502 0.9232802
0.980628 1.026955 0.88684636 0.9478847 0.8692903 0.9968489 0.934111 1.1083056
0.8665894 0.92049944 0.8962542 1.0206273 0.90586555 0.9241759 0.8930127 0.96078694
0.98012996 1.0057968 0.9341263 0.9566415 1.136564 0.9179992 0.9233891 1.4014212
0.9315152 0.9323682 1.0113326 1.0011367 0.8764345 0.91538054 1.0568578 1.0913608
1.0490625 1.0447787 0.9527644 0.9796581 0.95543236 0.9169075 0.9056488 0.928904
1.0599338 0.91645247 0.9254886 1.0125319 0.92661846 0.9571389 0.8624638 0.91655827
0.97438174 0.8894686 0.934489 0.9770391 1.0737991 0.8938753 1.0205083 1.1459541
0.90960556 0.9777414 1.005731 0.8888303 1.1025398 0.9243525 0.98677903 0.9176969
1.0973629 0.9116666 1.027341 0.99194 1.0211239 0.96589357 0.8918115 0.95357937
0.9602814 1.1249384 1.2243639 0.9453433 0.9017035 0.9558237 0.93236023 0.94533175
00000000: 1e0b 743f 2296 683f cb81 693f 75a3 763f
00000010: 89b3 733f 7d8d 703f 6ef0 753f a11c 6a3f
00000020: 7361 933f ed90 703f 0490 753f f101 833f
00000030: e315 723f 1769 723f ebfd 7c3f a043 793f
00000040: af86 7b3f 5332 683f 4b06 623f 84ea 673f
00000050: 1311 603f 58dd 803f 85b3 6f3f f976 5d3f
00000060: 5952 6b3f dcf9 873f 5556 663f c8be a23f
00000070: e706 683f 5ce6 6d3f 6ccf 823f d5b3 673f
00000080: 1a61 873f f0d2 7e3f 04ec 813f 680e 7a3f
00000090: dc3c 6c3f 5d4a 823f 20ce 723f 31e1 813f
000000a0: c953 763f 34d8 6f3f 1c5a 913f 0f77 793f
000000b0: c607 683f 0b00 7a3f 865e 683f 6550 663f
000000c0: 57a0 893f ad77 813f 6a17 8c3f 8cdd 8e3f
000000d0: 9271 853f 461b 843f 421d 633f 3826 643f
000000e0: d3e2 753f bc31 663f 7056 6e3f f9e5 803f
000000f0: 3890 673f 1d69 733f f0e6 5e3f 27b7 6c3f
00000100: 4373 6b3f 717c 8e3f 7186 803f b72a 623f
00000110: 6c32 703f 636f 7f3f 4d56 863f 4b77 7a3f
00000120: 1f43 753f d9bb 843f 33aa 713f b6fb 693f
00000130: d30b 8f3f c75b 743f c5f4 683f 12e7 593f
00000140: f1a5 6b3f eb35 863f 6367 6c3f 734f 7e3f
00000150: 9bbb 753f fe3b 5c3f 78b4 7b3f f44e 833f
00000160: fd52 743f 91ea 7b3f 07ac 6c3f ada8 833f
00000170: 4ace 6c3f eb9d 6c3f 30ef 673f 0534 743f
00000180: 4147 6a3f fd1b 823f 143b 633f 5d38 703f
00000190: 6565 823f 89f2 743f af84 713f 3da0 7a3f
000001a0: c646 6c3f aa62 833f af82 953f 6187 6b3f
000001b0: 0bc0 7b3f f757 843f 9fba 823f f18a 693f
000001c0: e484 773f caed 883f c05c 733f 0fc8 843f
000001d0: 2f2f 643f 0b83 8b3f 2656 713f 409b 6c3f
000001e0: ad75 733f 5eed 6c3f d0f6 873f 3b28 653f
000001f0: 943a 6e3f a4e4 863f 62ad 7a3f e257 743f
00000200: c1cd 6d3f 5b5e 723f 4023 663f 6ed7 833f
00000210: 6c20 6b3f 42c9 5e3f 5d0d 703f d822 793f
00000220: 8f71 713f e1ed 783f df97 693f 716e 633f
00000230: 3309 7d3f 64a1 6b3f cdd6 683f 210f 7c3f
00000240: 65dc 753f 85fa 793f fe49 693f c70c 613f
00000250: a0de 6b3f 4f7d 7d3f 0332 773f 128d 8b3f
00000260: a26f 6c3f 8e0f 663f ff4d 713f 986d 723f
00000270: bc3b 903f e17e 943f 0a40 733f 2591 603f
00000280: 60d6 743f 47a2 803f 5520 6b3f a0da 743f
00000290: 0fef 5f3f 13b3 7b3f b065 753f ad7b 823f
000002a0: 8cd2 743f 0321 7a3f 3da2 803f 44b1 733f
000002b0: d283 703f 234c 9d3f 130b 6d3f 175c 6c3f
000002c0: 700a 7b3f 4373 833f 5d08 633f 92a8 723f
000002d0: cf89 5e3f 7d31 7f3f e621 6f3f f5dc 8d3f
000002e0: ced8 5d3f daa5 6b3f ea70 653f eaa3 823f
000002f0: cee6 673f cb96 6c3f 7b9c 643f 22f6 753f
00000300: cce9 7a3f f3bd 803f e722 6f3f 75e6 743f
00000310: ee7a 913f ff01 6b3f 3a63 6c3f c561 b33f
00000320: c877 6e3f afaf 6e3f 5973 813f 3f25 803f
00000330: 035e 603f 6156 6a3f 1e47 873f b6b1 8b3f
00000340: ae47 863f 4fbb 853f 5ee8 733f e0ca 7a3f
00000350: 3797 743f 73ba 6a3f 9ad8 673f a7cc 6d3f
00000360: e9ab 873f a19c 6a3f d2ec 6c3f a59a 813f
00000370: de36 6d3f 0e07 753f 6dca 5c3f 90a3 6a3f
00000380: 1571 793f 37b4 633f ac3a 6f3f 3c1f 7a3f
00000390: 4072 893f 03d5 643f 04a0 823f a0ae 923f
000003a0: e9db 683f 434d 7a3f cbbb 803f 628a 633f
000003b0: 0620 8d3f 5ea2 6c3f 8d9d 7c3f 2fee 6a3f
000003c0: 6376 8c3f fb62 693f e97f 833f c8ef 7d3f
000003d0: 30b4 823f cd44 773f c24d 643f c71d 743f
000003e0: 00d5 753f fbfd 8f3f f5b7 9c3f 0502 723f
000003f0: 0ad6 663f ddb0 743f 29af 6e3f 4301 723f

ln1.bias f4 [512]
-0.011654835 0.037155863 0.028013026 -0.004361444 0.008577946 0.029147247 0.0139776785 0.049009137
0.0012512964 -0.0028048356 -0.04892658 -0.004084905 -0.025655998 0.016201079 -0.028442971 0.0025734857
0.045097142 0.008982957 0.03482052 0.018202182 0.012518509 -0.0061217435 -0.015770983 -0.008339927
0.029843764 -0.035877332 0.015467537 0.046809234 0.03273959 -0.01697112 -0.028430644 -0.007930805
-0.05174985 0.02489867 0.00701847 0.013757128 -0.013954228 0.024577362 -0.0150138335 0.020542292
0.0037218323 -0.030337939 0.028855287 0.031313475 0.036978 0.038088873 0.031767763 0.047748256
0.042359482 -0.028254068 0.010829562 0.026392393 -0.012679709 0.0037634068 0.05338827 -0.016434822
-0.023608338 0.0140413465 0.045784593 0.028213378 0.033050504 0.00503835 0.0074898596 0.054069493
-0.044332515 -0.040455066 0.034702994 0.054378755 0.01930272 -0.0031010413 0.012316167 0.014676167
0.004506577 0.02681344 0.008494457 -0.026882347 0.00261279 0.026195766 0.005395797 0.00092430844
-0.021173203 -0.025459614 0.028924003 -0.02084781 0.0062490865 -0.007574315 -0.038907677 -0.024959471
-0.029150171 -0.013978693 0.003392921 -0.008663931 0.019767292 -0.023272207 -0.006515634 -0.007320378
0.011543428 0.048168868 0.04726807 0.018297981 -0.0044159573 0.022896688 0.03050075 0.018752486
0.052961424 -0.015582116 -0.07853299 0.025310222 -0.02998325 -0.017433498 0.0068227486 0.053839356
-0.019899553 -0.018468529 0.04239368 0.00059891294 0.041870207 -0.01358418 -0.028030535 0.044028908
0.013745321 0.022272432 -0.00623354 -0.000423688 0.0033065195 0.006501425 0.004350437 -0.034157805
0.010777223 0.014821172 0.025213264 -0.026009755 -0.0034534773 0.014929776 0.036835663 -0.005976536
0.00825853 0.0011790594 0.027019551 0.047222868 -0.0041565825 0.042581167 0.0014583444 -0.03325459
-0.009141213 -0.029318685 -0.018674532 0.069511555 0.011959167 -0.030885007 -0.012750057 -0.0576268
0.030604789 0.0013993233 0.0049705175 -0.014414264 0.019088473 -0.052260026 0.058790956 0.0020746826
-0.001544203 -0.008964805 -0.0016171375 0.04422768 0.040897686 -0.0420851 0.029325603 -0.02746582
-0.011146072 -0.0016821031 0.0054539447 0.042706467 -0.053861678 0.022499857 -0.026109338 0.021553054
0.0019672299 -0.020565389 0.005899683 -0.0113525 0.0651526 0.043779466 0.032232344 0.035917368
0.033015367 0.043856226 0.016332928 0.012726569 0.040102154 -0.005056419 -0.013901657 0.019529428
-0.012661259 0.0035804217 0.024746558 0.044513043 0.036408626 0.01753202 0.045235883 0.029012814
0.025518999 0.024844777 -0.026148397 0.025607936 0.043436375 -0.017796328 0.0069548036 -0.030486811
-0.033567082 -0.004499481 0.013531683 0.030124843 -0.0020353931 0.031808026 0.01133259 -0.025303576
-0.021972355 -0.0035765362 0.040583104 0.024265043 0.019851685 0.010031714 0.039851744 -0.007067694
-0.03207776 0.010768123 -0.021675548 -0.02205715 -0.047920387 0.008431583 0.008856401 -0.02126413
0.013137721 0.023966298 -0.030053176 0.016445793 -0.030523451 0.027740266 -0.029162852 0.00029986387
-0.038871177 0.030823994 -0.034618244 0.041498248 0.0122772325 0.013360589 -0.0043334863 0.002898931
-0.02473492 -0.02104726 -0.00041081462 0.0054348162 0.047829647 0.021531304 -0.008138863 -0.019351838
00000000: ecf3 3ebc bf30 183d 937b e53c 72ea 8ebb
00000010: 838a 0c3c 35c6 ee3c a202 653c cebd 483d
00000020: 8a02 a43a 55d1 37bb 3d67 48bd abda 85bb
00000030: 872c d2bc 20b8 843c 3c01 e9bc eda7 283b
00000040: c8b7 383d 412d 133c f69f 0e3d be1c 953c
00000050: 6f1a 4d3c e898 c8bb 2632 81bc 30a4 08bc
00000060: e97a f43c 1cf4 12bd 8d6b 7d3c 0abb 3f3d
00000070: f319 063d 0507 8bbc 62e7 e8bc 35f0 01bc
00000080: a7f7 53bd 4cf8 cb3c 32fb e53b 9465 613c
00000090: 46a0 64bc 7756 c93c 95fc 75bc 4f48 a83c
000000a0: fce9 733b 4587 f8bc ec61 ec3c 8f42 003d
000000b0: 3e76 173d 1403 1c3d ea1e 023d ad93 433d
000000c0: 2381 2d3d 1375 e7bc 7a6e 313c dc34 d83c
000000d0: 8ebe 4fbc 7da3 763b a9ad 5a3d 52a2 86bc
000000e0: 4666 c1bc ad0d 663c a088 3b3d be1f e73c
000000f0: f75f 073d be18 a53b 7f6d f53b f977 5d3d
00000100: 0396 35bd 36b4 25bd ba24 0e3d 42bc 5e3d
00000110: bd20 9e3c d73a 4bbb c0c9 493c 4e74 703c
00000120: e8ab 933b dca7 db3c 562c 0b3c 5e38 dcbc
00000130: 583b 2b3b 8198 d63c 3acf b03b 4a4d 723a
00000140: 6d73 adbc ae90 d0bc 08f2 ec3c 07c9 aabc
00000150: 23c5 cc3b f631 f8bb a85d 1fbd ce77 ccbc
00000160: 57cc eebc e306 65bc c55b 5e3b 29f3 0dbc
00000170: 04ef a13c 5ba5 bebc 1981 d5bb c8df efbb
00000180: a520 3d3c b84c 453d 2a9c 413d a6e5 953c
00000190: bcb3 90bb d691 bb3c b5dc f93c d09e 993c
000001a0: 14ee 583d 224c 7fbc e7d5 a0bd 6257 cf3c
000001b0: 6f9f f5bc b2d0 8ebc 5d91 df3b a886 5c3d
000001c0: 6304 a3bc 504b 97bc ffa4 2d3d 5e00 1d3a
000001d0: 1880 2b3d 2e90 5ebc 4ba0 e5bc a857 343d
000001e0: 0e34 613c ad74 b63c b942 ccbb 7122 deb9
000001f0: 31b2 583b e809 d53b 1c8e 8e3b 0ee9 0bbd
00000200: f392 303c 80d4 723c 0c8c ce3c 6912 d5bc
00000210: bc53 62bb 059c 743c fee0 163d d1d6 c3bb
00000220: c94e 073c ab8a 9a3a 1b58 dd3c c46c 413d
00000230: f133 88bb 9769 2e3d eb25 bf3a f735 08bd
00000240: 07c5 15bc bd2d f0bc 55fb 98bc 135c 8e3d
00000250: 62f0 433c 8e02 fdbc 9de5 50bc 140a 6cbd
00000260: e5b6 fa3c 8069 b73a b9df a23b ce29 6cbc
00000270: 6e5f 9c3c 9c0e 56bd c9ce 703d 66f7 073b
00000280: db66 caba 1ee1 12bc 21f6 d3ba 1528 353d
00000290: 5584 273d 6d61 2cbd 3f3c f03c 0000 e1bc
000002a0: 049e 36bc 047a dcba 01b7 b23b faec 2e3d
000002b0: 109e 5cbd 9f51 b83c 40e3 d5bc 0890 b03c
000002c0: a4ec 003b bf78 a8bc 2152 c13b d6ff 39bc
000002d0: ba6e 853d 1952 333d 1006 043d 171e 133d
000002e0: 1f3b 073d 96a2 333d a2cc 853c 1983 503c
000002f0: 2842 243d 51b0 a5bb c7c3 63bc 2efc 9f3c
00000300: 2b71 4fbc 82a5 6a3b 4bb9 ca3c 4f53 363d
00000310: 3621 153d 509f 8f3c 4349 393d 48ac ed3c
00000320: 380d d13c 4687 cb3c 2a35 d6bc bcc7 d13c
00000330: 57ea 313d 9bc9 91bc 1fe5 e33b 7abf f9bc
00000340: a37d 09bd 6270 93bb feb3 5d3c 60c8 f63c
00000350: 3b64 05bb 2249 023d 54ac 393c 7249 cfbc
00000360: 5eff b3bc 5264 6abb 783a 263d 7cc7 c63c
00000370: 00a0 a23c 0f5c 243c 953b 233d 1d98 e7bb
00000380: f863 03bd c86c 303c eb90 b1bc 32b1 b4bc
00000390: 2b48 44bd 9f24 0a3c 701a 113c 1d32 aebc
000003a0: 993f 573c f854 c43c 1432 f6bc 54b9 863c
000003b0: 510c fabc 8e3f e33c efe6 eebc 0c37 9d39
000003c0: 6237 1fbd 9a82 fc3c dccb 0dbd 11fa 293d
000003d0: 7226 493c 5fe6 5a3c ebff 8dbb fefb 3d3b
000003e0: e3a0 cabc 4e6b acbc 9b62 d7b9 8b16 b23b
000003f0: 05e9 433d 6b62 b03c de58 05bc bf87 9ebc

fc2.weight f4 [256, 514]
-0.022009537 0.054708716 0.007406525 0.012115319 0.029441165 0.059401482 0.058743652 -0.029601648
0.016987711 0.021680864 0.062830485 0.0066205985 -0.0056730183 -0.07706744 0.0172403 0.071897805
0.04985676 0.02396707 -0.029999815 -0.036907732 -0.036618896 0.026828846 0.011246554 -0.047205377
-0.017291754 -0.049084518 0.03094073 0.0104535585 0.03864996 -0.052626796 -0.004076227 -0.041272108
0.05544387 -0.016112657 0.08463104 0.060274143 -0.01574487 -0.024814043 0.047542863 -0.033704437
0.018484727 -0.042940136 0.020786578 0.018465279 0.050975498 -0.03652297 -0.02793423 0.013640716
-0.037345298 0.004105514 -0.020888837 0.018815625 0.049269274 0.024315828 -0.004505828 0.026610585
-0.02646243 0.0006158648 -0.014239089 -0.042393606 0.059489943 0.0425523 0.04615373 -0.030566486
-0.027440589 0.049594916 -0.01961902 0.0462449 -0.036364127 -0.0029627306 0.07672104 0.042856127
-0.014528858 -0.07948001 -0.050115943 0.074452996 0.030162036 -0.011613558 -0.039763015 -0.030378925
-0.02300891 0.017143333 0.058931004 0.010794533 0.03351132 0.037080478 0.06981701 0.021675713
-0.054546744 0.04642575 0.062835656 0.020741615 -0.06963887 0.030047026 0.01579046 0.052732706
-0.055071063 0.012710636 0.020857794 -0.026390139 -0.034341037 -0.00066307886 -0.03686577 -0.056049902
-0.028937057 -0.0076354146 0.003972419 -0.03405121 0.050362214 0.04375196 0.053491063 -0.028522564
0.021953044 0.055707905 0.029097088 -0.02157964 0.049892418 -0.022900144 0.05044741 0.009056542
0.06425664 -0.039258316 -0.054930616 -0.010116083 0.047616903 0.023980623 -0.006877482 0.0140131805
0.015252422 -0.016011113 -0.021314025 0.015484985 0.0047635143 -0.002842663 0.0020435492 0.021045072
-0.047633752 -0.01680957 0.0035039736 -0.043586385 0.05283436 -0.03281161 -0.011084731 -0.03785681
0.0202563 -0.01405087 0.059885953 -0.041270874 0.019130467 0.07160117 -0.050821528 -0.039606337
-0.032607824 0.039844655 -0.00089087297 0.014108999 0.067121744 -0.009744914 6.655479e-05 -0.012759599
-0.014498218 0.05173971 -0.041537672 -0.056034096 0.058880243 -0.016846305 0.00013200898 -0.021624533
0.04101417 -0.001783306 0.034803465 -0.015468689 -0.029049378 0.03123304 0.009376177 0.018238552
0.011580674 0.08616064 0.009759688 -0.0016313401 0.034410242 -0.0004488225 0.040933482 0.06618534
0.0025098976 -0.031753317 -0.008120545 -0.0120359 0.034536898 0.01706558 -0.032183122 -0.024357539
-0.020810904 0.014968741 0.006158381 -0.049174834 -0.04575974 0.06049162 -0.0613516 -0.018516371
0.007096347 -0.0015859397 0.025797334 0.0291057 -0.07278641 0.020362685 0.027844785 0.025320105
0.08596479 0.032373596 -0.0037675072 0.01580001 0.027371312 0.0017160022 0.0013984229 0.06576272
0.0053227344 -0.009826829 -0.010078048 -0.008728634 0.009566394 0.03287493 -0.009542869 -0.034136508
0.057147615 0.060800422 -0.029007211 0.059619598 -0.018835325 0.0270004 -0.042033896 0.003566138
-0.050377995 0.06285963 0.062525794 0.045070145 0.008503248 -0.021889482 0.061593838 -0.03581415
-0.0047213268 0.013753332 -0.026605692 -0.05732412 0.03761785 -0.020604245 0.023189642 0.031286236
0.0020608918 0.043822188 -0.021538379 -0.0023613344 0.019243753 -0.009149297 0.022329243 0.013484226
00000000: 584d b4bc 3f16 603d 6fb2 f23b 557f 463c
00000010: 992e f13c f84e 733d 2f9d 703d 287f f2bc
00000020: d029 8b3c 119c b13c 45ad 803d 9bf1 d83b
00000030: bae4 b9bb 89d5 9dbd 883b 8d3c 283f 933d
00000040: 9a36 4c3d 9756 c43c 2cc2 f5bc 902c 17bd
00000050: b2fd 15bd 2bc8 db3c 7743 383c 6d5a 41bd
00000060: 70a7 8dbc d90c 49bd 6a77 fd3c 6745 2b3c
00000070: 6c4f 1e3d 328f 57bd df91 85bb f10c 29bd
00000080: 1d19 633d b1fe 83bc 0a53 ad3d 05e2 763d
00000090: 63fb 80bc d246 cbbc 4ebc 423d aa0d 0abd
000000a0: 486d 973c ffe1 2fbd 9d48 aa3c 7f44 973c
000000b0: afcb 503d 1c99 15bd 54d6 e4bc 4f7d 5f3c
000000c0: 62f7 18bd 8c87 863b 111f abbc 3a23 9a3c
000000d0: 94ce 493d fd31 c73c a0a5 93bb 71fe d93c
000000e0: bdc7 d8bc fd71 213a 114b 69bc eba4 2dbd
000000f0: baab 733d 524b 2e3d b20b 3d3d 9166 fabc
00000100: 16cb e0bc 0a24 4b3d 11b8 a0bc 4b6b 3d3d
00000110: 8df2 14bd 5f2a 42bb ec1f 9d3d e889 2f3d
00000120: 720a 6ebc 6ac6 a2bd 6046 4dbd d07a 983d
00000130: 6016 f73c cb46 3ebc 8bde 22bd 39dd f8bc
00000140: 2e7d bcbc 2d70 8c3c a361 713d 8edb 303c
00000150: 2a43 093d b3e1 173d 38fc 8e3d 4491 b13c
00000160: 686c 5fbd ed28 3e3d fbaf 803d 52ea a93c
00000170: d39e 8ebd 2e25 f63c ff5a 813c 40fe 573d
00000180: 3292 61bd 4540 503c f7dd aa3c 2230 d8bc
00000190: 30a9 0cbd 78d2 2dba 9000 17bd 9594 65bd
000001a0: 680d edbc 8032 fabb 112b 823b 4879 0bbd
000001b0: 9c48 4e3d 4135 333d 7219 5b3d 27a8 e9bc
000001c0: dfd6 b33c f92d 643d 045d ee3c c9c7 b0bc
000001d0: fe5b 4c3d 1599 bbbc f2a1 4e3d e461 143c
000001e0: fc98 833d 54cd 20bd edfe 60bd edbd 25bc
000001f0: f109 433d 0373 c43c 805c e1bb 8a97 653c
00000200: 4be5 793c bd29 83bc c09a aebc bcb4 7d3c
00000210: 4117 9c3b f94b 3abb 11ed 053b b766 ac3c
00000220: 9c1b 43bd 39b4 89bc eca2 653b a387 32bd
00000230: d868 583d 7765 06bd bb9c 35bc be0f 1bbd
00000240: 8af0 a53c 9f35 66bc f94a 753d a60b 29bd
00000250: 7fb7 9c3c a2a3 923d 3c2a 50bd 413a 22bd
00000260: c88f 05bd 2634 233d 7989 69ba 6e29 673c
00000270: 2077 893d 22a9 1fbc 5593 8b38 a30d 51bc
00000280: ef89 6dbc 05ed 533d 6823 2abd 0284 65bd
00000290: 692c 713d 4301 8abc e46b 0a39 ef25 b1bc
000002a0: 79fe 273d d2bd e9ba 148e 0e3d 6270 7dbc
000002b0: f6f8 edbc 6fdc ff3c 899e 193c 0469 953c
000002c0: debc 3d3c fd74 b03d 19e7 1f3c b1d2 d5ba
000002d0: c1f1 0c3d f04f ebb9 dea9 273d 2e8c 873d
000002e0: 187d 243b c40f 02bd 090c 05bc 3932 45bc
000002f0: 9076 0d3d 1dcd 8b3c 73d2 03bd 7689 c7bc
00000300: a17b aabc 733f 753c 3ecc c93b 8d6b 49bd
00000310: 916e 3bbd 10c6 773d d14b 7bbd a5af 97bc
00000320: 7988 e83b 4edf cfba ee54 d33c 146f ee3c
00000330: 0b11 95bd a5cf a63c bf1a e43c 1c6c cf3c
00000340: 4f0e b03d 2d9a 043d 48e8 76bb 066f 813c
00000350: cd39 e03c 7beb e03a 494b b73a 9bae 863d
00000360: 556a ae3b b500 21bc 661e 25bc 8b02 0fbc
00000370: 5dbc 1c3c dda7 063d b259 1cbc b9d2 0bbd
00000380: 9e13 6a3d dd09 793d 88a0 edbc ae33 743d
00000390: 8a4c 9abc f12f dd3c bc2b 2cbd deb5 693b
000003a0: 2859 4ebd 8dbc 803d 860d 803d 799b 383d
000003b0: 3551 0b3c 9251 b3bc d249 7c3d dcb1 12bd
000003c0: 5cb5 9abb a855 613c 2ef4 d9bc b2cc 6abd
000003d0: 2d15 1a3d 3cca a8bc 34f8 bd3c ff25 003d
000003e0: 0710 073b e57e 333d 4171 b0bc 9ec0 1abb
000003f0: 13a5 9d3c efe6 15bc d1eb b63c f1ec 5c3c

fc2.bias f4 [256]
-0.04502402 -0.05248904 -0.058439158 -0.02821328 -0.039130025 -0.07742513 -0.041127 -0.04150408
-0.07637448 -0.09473368 -0.06857889 -0.033070687 -0.023252724 -0.008356128 -0.038452864 -0.031137653
-0.07041569 -0.031817947 -0.03517897 -0.050991215 -0.0047887517 -0.034281798 0.00973205 0.00025114938
-0.02228754 -0.09153506 -0.053723373 -0.06147782 -0.035992984 -0.05254067 -0.0078457035 -0.03850994
-0.0773685 -0.01944098 -0.030636255 -0.04695305 -0.045549903 -0.035529926 -0.07325351 -0.02289539
-0.021609835 -0.04058636 -0.03234699 -0.06632606 -0.021051884 -0.029243115 -0.062942356 -0.038719203
-0.04225622 -0.057019655 0.011915194 -0.012751964 -0.0106282225 -0.09641261 -0.06655174 -0.025232572
-0.026041513 -0.0668133 -0.06294174 -0.018172449 -0.056234583 -0.085008495 0.003790158 -0.08558538
-0.010240113 -0.08818139 -0.099297985 0.007958651 -0.04130593 -0.07671871 0.0098302765 -0.063315354
-0.013298472 -0.031460814 -0.05935108 -0.033219866 -0.066567 -0.028332941 -0.011390831 -0.03474992
-0.026154533 -0.04055707 -0.0534946 -0.022764007 0.019886622 -0.07050008 -0.027052475 -0.07333658
0.013491271 -0.034592934 -0.07260771 -0.025897607 -0.051283363 -0.05163936 -0.0903139 -0.03820955
-0.029481003 -0.018058697 -0.048232015 -0.027624061 -0.06763245 -0.046569325 -0.012674197 -0.08370127
-0.017934535 -0.02370482 -0.0059587043 -0.034902226 -0.05978882 -0.009696257 -0.019027647 0.00674604
-0.07729778 -0.042345706 -0.015378645 0.00037087093 -0.043636367 -0.014895656 -0.02328083 -0.07191728
-0.051995993 -0.0029641485 -0.009937445 0.002436516 -0.07734187 -0.061189525 0.02491977 -0.05549497
-0.06205553 -0.06791362 0.00050464674 -0.005425457 -0.0018126412 -0.007922817 -0.054197546 -0.032011524
-0.055696376 3.534197e-05 -0.07745717 -0.108661436 -0.034872226 -0.061392836 -0.014357703 -0.04683584
-0.06504715 -0.015218571 -0.082189806 -0.034127057 -0.036580913 -0.05890287 -0.09093548 -0.041111715
-0.054497678 -0.02537696 -0.0040230006 -0.07340802 -0.024017343 -0.05424082 -0.013718942 -0.036144853
-0.006635451 -0.023096837 -0.007293961 -0.0039187 -0.022411842 -0.058401953 -0.014840339 -0.04149502
-0.014795458 -0.019579416 -0.008011966 -0.07140673 -0.07600274 -0.04018162 -0.051095013 0.016340293
0.0024204708 -0.038808 -0.06626318 -0.005468559 -0.046671387 -0.068398215 -0.06309302 -0.0098399995
-0.020994581 -0.025815262 -0.024752805 -0.054624036 -0.0628305 -0.03523594 -0.04233893 -0.023453385
-0.0732614 -0.041261747 -0.019777372 -0.048652947 -0.058588915 -0.06425395 -0.06544814 -0.019527223
-0.0887058 -0.072182745 -0.0133839315 -0.0018296998 -0.06709236 -0.0008886558 -0.038420938 -0.06868291
-0.081919916 -0.031457625 -0.083991684 -0.023818625 0.004006736 -0.0023880529 -0.009610877 0.0036609739
-0.022496866 0.0034962879 -0.062286206 -0.020748533 -0.07170848 -0.0024077606 -0.020843137 -0.08100715
-0.07351403 -0.015718875 -0.0405021 -0.011255107 -0.017549736 -0.044832706 -0.05452153 -0.07479426
-0.0908698 -0.008412438 -0.025618723 -0.012365022 -0.04320055 -0.06209975 -0.052169792 -0.034701124
-0.020197311 -0.062976554 -0.042306174 -0.034570087 -0.08842394 -0.064122446 -0.024488416 -0.021356458
-0.06954582 -0.012076169 -0.0725183 -0.011278508 0.01705845 -0.062166005 -0.05901817 -0.0010782169
00000000: 1b6b 38bd bffe 56bd e65d 6fbd 891f e7bc
00000010: ce46 20bd 1191 9ebd c974 28bd 2f00 2abd
00000020: 396a 9cbd bb03 c2bd 1773 8cbd 2175 07bd
00000030: 7f7c bebc 24e8 08bc c080 1dbd 6414 ffbc
00000040: 1a36 90bd 8953 02bd d317 10bd 2adc 50bd
00000050: f6ea 9cbb 126b 0cbd 2d73 1f3c b3ac 8339
00000060: 5c94 b6bc bc76 bbbd 0a0d 5cbd 2bd0 7bbd
00000070: 616d 13bd e334 57bd 448b 00bc 99bc 1dbd
00000080: 6073 9ebd b142 9fbc e2f8 fabc d751 40bd
00000090: 8992 3abd d487 11bd f005 96bd 1d8f bbbc
000000a0: 1c07 b1bc e23d 26bd 477e 04bd f5d5 87bd
000000b0: 0075 acbc 428f efbc ece7 80bd 0798 1ebd
000000c0: dc14 2dbd 718d 69bd f237 433c 9ded 50bc
000000d0: ff21 2ebc f973 c5bd 474c 88bd 8ab4 cebc
000000e0: 0355 d5bc 69d5 88bd 99e7 80bd 63de 94bc
000000f0: 3c56 66bd ef18 aebd 4d64 783b 6347 afbd
00000100: 26c6 27bc 7298 b4bd be5c cbbd 0065 023c
00000110: 6830 29bd b31e 9dbd 2b0f 213c 7bab 81bd
00000120: d6e1 59bc 0edd 00bd 1e1a 73bd 8e11 08bd
00000130: 4754 88bd 7c1a e8bc 9ca0 3abc ef55 0ebd
00000140: 0842 d6bc 2c1f 26bd 271d 5bbd 957b babc
00000150: 45e9 a23c 5962 90bd 279d ddbc 7d31 96bd
00000160: 7e0a 5d3c 52b1 0dbd 5ab3 94bd 3827 d4bc
00000170: 810e 52bd cb83 53bd 7ef6 b8bd 9e81 1cbd
00000180: 2582 f1bc d5ef 93bc ef8e 45bd db4b e2bc
00000190: e282 8abd 7abf 3ebd 6fa7 4fbc 926b abbd
000001a0: 72eb 92bc 9c30 c2bc 3c41 c3bb a3f5 0ebd
000001b0: 1fe5 74bd 0ddd 1ebc dedf 9bbc e30d dd3b
000001c0: 4c4e 9ebd b172 2dbd b6f6 7bbc 7471 c239
000001d0: 0cbc 32bd e90c 74bc 70b7 bebc 5e49 93bd
000001e0: c0f9 54bd 2942 42bb aad0 22bc f5ad 1f3b
000001f0: 6a65 9ebd dea1 7abd 8c24 cc3c b24e 63bd
00000200: f02d 7ebd 4c16 8bbd 454a 043a 08c8 b1bb
00000210: 2596 edba b4ce 01bc 3ffe 5dbd 841e 03bd
00000220: e221 64bd 273c 1438 dda1 9ebd e389 debd
00000230: 2ed6 0ebd 0e77 7bbd 923c 6bbc f0d6 3fbd
00000240: 7137 85bd 5057 79bc 2153 a8bd d0c8 0bbd
00000250: ded5 15bd 2344 71bd 623c babd c264 28bd
00000260: f538 5fbd 58e3 cfbc 60d3 83bb f256 96bd
00000270: 05c0 c4bc 9f2b 5ebd 6ac5 60bc a00c 14bd
00000280: 336e d9bb 9435 bdbc 2e02 efbb 7068 80bb
00000290: 0a99 b7bc e336 6fbd e524 73bc aff6 29bd
000002a0: a668 72bc 0365 a0bc 9f44 03bc b13d 92bd
000002b0: 53a7 9bbd 7b95 24bd 0149 51bd 14dc 853c
000002c0: c3a0 1e3b 23f5 1ebd fdb4 87bd 9931 b3bb
000002d0: 7f2a 3fbd 5d14 8cbd ea36 81bd f337 21bc
000002e0: d4fc abbc 877a d3bc 65c6 cabc 74bd 5fbd
000002f0: 47ad 80bd 9053 10bd 966b 2dbd 5021 c0bc
00000300: 130a 96bd 1402 29bd 2804 a2bc 5048 47bd
00000310: eefa 6fbd 9397 83bd ad09 86bd 8ef7 9fbc
00000320: 63ab b5bd 8cd4 93bd 4748 5bbc 8ad2 efba
00000330: b867 89bd aef4 68ba 465f 1dbd a0a9 8cbd
00000340: a1c5 a7bd b6d9 00bd d503 acbd 471f c3bc
00000350: f04a 833b e180 1cbb f176 1dbc f3ec 6f3b
00000360: 594b b8bc fa21 653b d21f 7fbd d4f8 a9bc
00000370: e5db 92bd 85cb 1dbb 3abf aabc 14e7 a5bd
00000380: 868e 96bd dfc4 80bc 88e5 25bd 5767 38bc
00000390: 77c4 8fbc 80a2 37bd f851 5fbd bc2d 99bd
000003a0: f219 babd 53d4 09bc 5bde d1bc a996 4abc
000003b0: 0ff3 30bd 4f5c 7ebd feaf 55bd c422 0ebd
000003c0: d574 a5bc daf9 80bd 3d49 2dbd 5d99 0dbd
000003d0: 9c17 b5bd a152 83bd ee9b c8bc bdf3 aebc
000003e0: 0a6e 8ebd 20db 45bc 7984 94bd 7ec9 38bc
000003f0: 2abe 8b3c c8a1 7ebd 09bd 71bd f552 8dba

fc3.weight f4 [1, 256]
0.0022810004 0.0010293791 0.01066537 -0.014374357 0.0018336313 -0.0002872333 0.00055876 0.016893277
-0.0009400535 -0.006930837 2.4570969e-05 0.014263142 0.02428509 0.009604666 -0.0013922418 0.0010641699
0.009693592 -0.0019083567 0.006961195 0.0019437058 -0.0024030958 0.019292152 0.01552875 0.0017655058
0.0008408895 0.004979509 0.0008982447 -0.0036881813 -5.8681115e-05 0.01712734 -0.042421255 -0.0021558374
-0.0076205838 0.021038616 -0.00069842534 -0.004492058 -0.0018752177 0.005001817 0.009857897 0.003023118
0.021961698 0.008210745 -0.0046253637 -0.0017818809 0.03395101 -0.003250666 0.0010980977 0.000681125
-0.009968466 -0.014387578 0.0075890445 0.0043234024 0.012169959 -0.0006912908 -0.0011346372 -0.002936052
-0.001149685 0.0009414347 0.0070051616 0.0025125758 -0.025517542 0.012465228 -0.00088965794 0.009589342
-0.00021907229 0.003474862 0.0014621565 0.007770905 -0.0015876183 0.0019310728 0.026359126 -0.00056113896
0.024819707 -0.058886517 0.0044444534 0.008027603 0.00371558 0.008290299 0.0019009016 -0.0001668754
0.00017571771 0.00018722123 0.022231914 -0.0043252576 0.004916427 -0.00024375724 -0.011058126 -0.014571719
0.025859058 0.0357884 0.005099666 -0.04515513 0.012756952 -0.0010811362 0.003681967 -0.0041752225
0.0014518345 0.059308846 0.043114007 0.032731622 3.1968215e-05 0.032068234 -0.0009773043 -0.0018285157
0.0032532006 0.011339895 -0.004479744 0.029628819 0.0116904555 -0.0005629144 0.006489995 0.0035988467
0.00039581722 -0.01115493 -0.0006942176 -0.04738144 -0.0028965734 0.014923986 0.00040843373 -0.008342732
0.027876649 -0.010292632 -0.0014886583 -0.00033826425 -0.0033816167 0.017694749 -0.019196741 0.000903552
0.0012239033 0.0032898036 0.004137052 0.013072691 0.00133521 -0.013206725 0.01503569 0.00010503816
0.00087250484 -0.0012563088 -0.00042368003 -0.00090775464 0.0065006404 0.0055223457 0.022160657 -0.0031838762
-0.0023363123 -0.0060010417 -0.0038725107 0.0047960454 -0.009831194 -0.0020878534 -0.003923476 -0.0036924563
0.0018801102 0.004728868 0.00066809636 -0.001773634 -0.004369269 -0.00091396377 0.00024632522 0.005911518
0.0016285233 0.0037073917 -0.0020721622 -0.010834646 -0.005633552 0.0017848838 0.0031484182 0.0003734555
0.0024603824 -0.02361085 -0.07384677 -0.0201041 0.0010515158 -9.7415956e-05 0.014371065 -0.0048507075
-0.003105077 0.0058094887 0.005183273 -0.0021939527 0.023805292 -0.0026868337 -0.0035407413 -0.007108303
-0.00021137483 0.007328712 -0.0145391645 -0.0003309874 0.0043815034 -0.0067620445 0.0046051196 0.021453226
0.0042152596 -0.0010591908 -0.009232189 -0.0017585873 0.0035997382 -0.0015907796 0.014829353 0.0014096985
-0.006496257 -0.031478528 0.011968928 0.033088133 0.0072357324 -0.013464355 0.012723075 -0.013505423
-0.005724219 -0.0032683923 0.016188513 0.05067922 0.002691626 0.035441328 -0.002115746 0.001637294
-0.00091671274 0.010443538 0.02129102 -0.0034213974 0.00095791323 -0.0020810433 0.0053299926 0.0006546449
0.00013689279 -0.012855478 -0.0011095568 -0.0009449574 -0.010870403 0.0011855691 0.008833595 -0.00013607524
4.5474113e-05 -0.0016405605 0.0054133777 0.024506852 0.001403894 0.01402395 0.001950267 0.0024460175
-0.013050787 -0.011237803 -0.042480297 0.0028079196 0.0009832765 0.005766269 0.0043068654 2.1508169e-05
0.0009929058 -0.00663884 0.0007880019 0.0019532044 -0.045987092 0.0008154862 0.000104952334 -0.01281638
00000000: d67c 153b 3bec 863a cebd 2e3c 6c82 6bbc
00000010: 7556 f03a cd97 96b9 c079 123a c563 8a3c
00000020: ec6d 76ba 131c e3bb c11d ce37 f4af 693c
00000030: 86f1 c63c e45c 1d3c e27b b6ba 9e7b 8b3a
00000040: dfd1 1e3c d321 faba bc1a e43b f2c3 fe3a
00000050: 427d 1dbb 930a 9e3c 4c6c 7e3c 8b68 e73a
00000060: 246f 5c3a 262b a33b 2e78 6b3a 6ab5 71bb
00000070: 5e20 76b8 a34e 8c3c e9c1 2dbd f348 0dbb
00000080: 17b6 f9bb 2d59 ac3c 8816 37ba 1d32 93bb
00000090: ddc9 f5ba 48e6 a33b 0483 213c 811f 463b
000000a0: 05e9 b33c 5c86 063c 5d90 97bb 008e e9ba
000000b0: 3710 0b3d 2009 55bb 0bee 8f3a 868d 323a
000000c0: c752 23bc e0b9 6bbc 85ad f83b 54ab 8d3b
000000d0: 8264 473c be37 35ba 1bb8 94ba c76a 40bb
000000e0: 07b1 96ba 9dca 763a 8e8b e53b 07aa 243b
000000f0: 2a0a d1bc f53a 4c3c ef37 69ba 9e1c 1d3c
00000100: c5b6 65b9 83ba 633b d5a5 bf3a 13a3 fe3b
00000110: a117 d0ba 0d1c fd3a 18ef d73c 6619 13ba
00000120: b352 cb3c fd32 71bd c7a2 913b 3586 033c
00000130: 1781 733b 09d4 073c ac27 f93a 46fb 2eb9
00000140: dd40 3839 d150 4439 b41f b63c e4ba 8dbb
00000150: fb19 a13b 1699 7fb9 242d 35bc 38be 6ebc
00000160: 60d6 d33c db96 123d 191b a73b 96f4 38bd
00000170: 8902 513c e9b4 8dba 284d 713b 4ed0 88bb
00000180: 7b4b be3a d5ed 723d 5098 303d 9811 063d
00000190: 9c15 0638 fb59 033d e418 80ba ceaa efba
000001a0: a633 553b f8ca 393c d1ca 92bb 23b8 f23c
000001b0: 5389 3f3c 8c90 13ba 06aa d43b a1da 6b3b
000001c0: b085 cf39 2bc3 36bc 28fc 35ba 0a13 42bd
000001d0: 70d4 3dbb bc83 743c 0c23 d639 f4af 08bc
000001e0: 925d e43c 6da2 28bc 151f c3ba 0f59 b1b9
000001f0: 1d9e 5dbb 94f4 903c 7c42 9dbc 59dc 6c3a
00000200: 616b a03a bf99 573b 1c90 873b d72e 563c
00000210: 3702 af3a 0561 58bc 4158 763c ef47 dc38
00000220: cfb8 643a baaa a4ba 5f21 deb9 62f6 6dba
00000230: 5303 d53b cbf4 b43b 448a b53c 94a8 50bb
00000240: d11c 19bb 63a4 c4bb f3c9 7dbb 2528 9d3b
00000250: 0413 21bc 5ed4 08bb 8190 80bb 23fd 71bb
00000260: 086e f63a 9ff4 9a3b 3023 2f3a 4879 e8ba
00000270: 162c 8fbb 1297 6fba 3625 8139 68b5 c13b
00000280: 2d74 d53a b6f7 723b 1dcd 07bb cd83 31bc
00000290: a999 b8bb c3f2 e93a b155 4e3b 59cc c339
000002a0: 5e3e 213b 8b6b c1bc fa3c 97bd 5bb1 a4bc
000002b0: 04d3 893a cb4b ccb8 9e74 6b3c aff2 9ebb
000002c0: 8c7e 4bbb 865d be3b 72d8 a93b 6bc8 0fbb
000002d0: 5103 c33c 9715 30bb c80b 68bb c4ec e8bb
000002e0: 80a4 5db9 b125 f03b ad35 6ebc 6088 adb9
000002f0: b792 8f3b 2494 ddbb 8be6 963b adbe af3c
00000300: 2920 8a3b 8cd4 8aba 9b42 17bc 6680 e6ba
00000310: 96e9 6b3b b581 d0ba d1f6 723c a2c5 b83a
00000320: 8ede d4bb a1ef 00bd 5319 443c 6c87 073d
00000330: b919 ed3b 9999 5cbc 7274 503c da45 5dbc
00000340: 3b92 bbbb 8632 56bb c69d 843c 0495 4f3d
00000350: fe65 303b ed2a 113d 54a8 0abb 789a d63a
00000360: 8d4f 70ba 601b 2b3c 816a ae3c 8639 60bb
00000370: 781c 7b3a 1d62 08bb 38a7 ae3b 7a9c 2b3a
00000380: e18a 0f39 c89f 52bc 8c6e 91ba 05b7 77ba
00000390: c619 32bc 1965 9b3a c8ba 103c 6baf 0eb9
000003a0: 75bb 3e38 1308 d7ba b462 b13b 98c2 c83c
000003b0: de02 b83a b6c4 653c 1aa0 ff3a 5d4d 203b
000003c0: f8d2 55bc c31e 38bc d2ff 2dbd 1305 383b
000003d0: 49e1 803a f8f2 bc3b 9b20 8d3b 716c b437
000003e0: 6424 823a a08a d9bb ea91 4e3a 5501 003b
000003f0: f65c 3cbd 5ac6 553a db19 dc38 cbfb 51bc
